trained_models/configs.cnn6_small_dropout_2_specAugment_128_2_32_2/ckpt.pth (torch, 791759 bytes, 88 tensors)

bn0.weight f4 [256]
2.0075195 1.2375635 1.8258783 1.3802332 1.5016758 1.554456 1.497234 0.8214962
1.6411328 1.0484449 1.2502785 1.3492123 1.2630097 1.3330388 1.3303585 1.0725647
1.2760004 1.3417704 1.1647279 1.0977284 1.2679063 1.2049255 0.7515193 1.3931174
0.9649816 0.99595875 1.2621597 0.9880139 0.9967821 1.385756 0.96159613 1.1054124
0.87314206 1.1915594 0.8763863 1.2269651 1.1543516 0.90183127 1.0101397 1.0148852
0.91217947 0.7357226 1.2936783 0.5101119 1.1855096 0.68862754 0.9951117 0.8392169
0.7533417 0.96901506 1.0404502 0.7781803 1.1572245 0.70277935 0.56424963 0.9284493
0.7496131 0.874222 0.6156466 0.95644915 0.6941733 1.0121491 0.8743192 0.6138063
0.6811145 0.73217034 0.8832308 0.44323972 0.8949668 0.7819736 0.8984153 0.789662
0.65951115 0.806211 0.8363385 0.4033638 0.8066753 0.62578034 0.8347661 0.81226116
0.71911347 0.91241276 0.67846686 0.82891476 0.97204256 0.6516359 0.75553036 0.9470805
0.9434073 0.6433581 1.0955533 0.76542616 0.8032507 1.1112243 0.81460845 0.95062304
0.8778841 0.8325096 0.7991129 1.0550207 0.86081946 1.0752321 1.158984 0.8904588
0.9805162 0.8163885 1.1339761 0.76121104 0.96910894 0.7960604 0.99907583 0.7682762
0.98605204 0.6980544 1.049059 0.7064577 0.888422 0.81662196 0.9985736 0.7947957
0.9994707 0.780765 0.96563256 0.9046833 1.0211241 0.78914297 1.015591 0.8654108
0.9395216 0.7351901 1.0310091 0.76125103 1.037789 0.8212533 0.95732564 0.6943814
1.0984273 0.8412517 1.0994009 0.6168604 0.88246125 0.9582281 0.7457402 1.0036597
0.78661245 0.9469107 1.0636842 0.8323331 0.79581636 0.86033636 0.939733 1.0092561
0.785903 1.0955194 0.90299225 0.9194036 0.91833186 0.90420413 1.0091139 0.9055548
0.8519115 1.0056202 0.70251566 0.8865849 0.6666031 1.0223285 0.85891396 0.93841213
0.915039 0.8549101 0.63120085 0.8433589 0.91035575 0.7019733 0.84464896 0.78134406
0.8679416 0.8040436 0.88055897 0.778246 0.87708265 0.78881013 0.8394972 0.8393493
0.92926174 0.8919673 0.7985329 0.8107137 0.88784987 0.7877244 0.8633224 0.7326335
0.8710607 0.72087115 0.7923213 0.75394475 0.8290398 0.7828751 0.82929105 0.78052175
0.8332221 0.7316356 0.79146147 0.6394181 0.85846657 0.7959365 0.9139425 0.6296447
0.7331131 0.738541 0.8979516 0.6511589 0.76127017 0.83284515 0.863532 0.7528568
0.571696 0.7576375 0.5740668 0.6343569 0.7337692 0.7702352 0.6342158 0.6495165
0.65545154 0.88022023 0.63749886 0.85066867 0.82951874 0.6935745 0.7478154 0.84883595
0.80386573 0.6378767 0.5869223 0.86659735 0.73100597 0.6583003 0.8766011 0.70363617
0.9027855 0.68353033 0.943274 0.70914936 0.896694 1.1468495 0.8256045 1.3052686
1.3126101 1.325286 1.1440202 1.1332079 0.9459563 1.012801 0.9187111 1.1875467
00000000: 337b 0040 7b68 9e3f 61b6 e93f 7bab b03f
00000010: ea36 c03f 6af8 c63f 5da5 bf3f 934d 523f
00000020: a410 d23f 7133 863f 2009 a03f fdb2 ac3f
00000030: 4daa a13f 04a1 aa3f 3049 aa3f cd49 893f
00000040: fb53 a33f 22bf ab3f ce15 953f 5d82 8c3f
00000050: c14a a23f 003b 9a3f 9263 403f ac51 b23f
00000060: 0909 773f 27f7 7e3f 738e a13f 7bee 7c3f
00000070: 1d2d 7f3f 7460 b13f 2a2b 763f 277e 8d3f
00000080: 3d86 5f3f 0585 983f da5a 603f 310d 9d3f
00000090: cbc1 933f 6ade 663f 424c 813f c2e7 813f
000000a0: 9884 693f 5158 3c3f 4097 a53f b296 023f
000000b0: c7be 973f e549 303f a4bf 7e3f ebd6 563f
000000c0: 00db 403f 5f11 783f 792d 853f d336 473f
000000d0: ef1f 943f 59e9 333f aa72 103f daae 6d3f
000000e0: a5e6 3f3f 03cd 5f3f 049b 1d3f dad9 743f
000000f0: 57b5 313f 1a8e 813f 62d3 5f3f 6922 1d3f
00000100: 855d 2e3f 846f 3b3f 6a1b 623f 51f0 e23e
00000110: 8b1c 653f 6c2f 483f 8cfe 653f 4a27 4a3f
00000120: b9d5 283f d863 4e3f 481a 563f b385 ce3e
00000130: 4682 4e3f 2433 203f 3bb3 553f 59f0 4f3f
00000140: d217 383f e293 693f 01b0 2d3f c233 543f
00000150: c8d7 783f 9cd1 263f 706a 413f de73 723f
00000160: 2483 713f 1eb3 243f 173b 8c3f f8f2 433f
00000170: d6a1 4d3f 993c 8e3f 2e8a 503f 085c 733f
00000180: 03bd 603f 591f 553f aa92 4c3f eb0a 873f
00000190: aa5e 5c3f 35a1 893f 9659 943f 1cf5 633f
000001a0: 1c03 7b3f d6fe 503f 2126 913f bade 423f
000001b0: 8617 783f 9dca 4b3f 6fc3 7f3f c0ad 443f
000001c0: e86d 7c3f b1b3 323f 9147 863f 69da 343f
000001d0: a06f 633f 230e 513f 85a2 7f3f bb77 4b3f
000001e0: 50dd 7f3f 37e0 473f b233 773f 5399 673f
000001f0: 32b4 823f 4605 4a3f e3fe 813f 908b 5d3f
00000200: 7d84 703f 6b35 3c3f 1bf8 833f 59e1 423f
00000210: 45d6 843f a83d 523f 4b13 753f fbc2 313f
00000220: 4499 8c3f 455c 573f 2bb9 8c3f 90ea 1d3f
00000230: fbe8 613f 704e 753f d4e8 3e3f ec77 803f
00000240: 6f5f 493f bd68 723f ce26 883f c813 553f
00000250: 9fba 4b3f 013f 5c3f 5892 703f 4e2f 813f
00000260: f030 493f fb39 8c3f 802a 673f 095e 6b3f
00000270: cc17 6b3f ec79 673f a52a 813f 70d2 673f
00000280: df16 5a3f 2ab8 803f 11d8 333f 3af7 623f
00000290: 80a6 2a3f a9db 823f c9e1 5b3f c73b 703f
000002a0: ff3f 6a3f 63db 5a3f 6196 213f 5ee6 573f
000002b0: 130d 693f 86b4 333f ea3a 583f 2a06 483f
000002c0: 6c31 5e3f cdd5 4d3f 506c 613f 213b 473f
000002d0: 7d88 603f 76ef 493f 4ae9 563f 99df 563f
000002e0: 19e4 6d3f f857 643f a76c 4c3f ef8a 4f3f
000002f0: 214a 633f 4ea8 493f b202 5d3f de8d 3b3f
00000300: d6fd 5e3f 038b 383f 92d5 4a3f 8602 413f
00000310: f43b 543f 816a 483f 6b4c 543f 46d0 473f
00000320: 0b4e 553f 784c 3b3f 389d 4a3f e8b0 233f
00000330: 77c4 5b3f 7fc2 4b3f 23f8 693f 6530 213f
00000340: 4dad 3b3f 0611 3d3f 28e0 653f 5ab2 263f
00000350: 9ae2 423f 5735 553f 6f10 5d3f 39bb 403f
00000360: ab5a 123f 88f4 413f 0bf6 123f 3765 223f
00000370: 4cd8 3b3f 222e 453f f75b 223f b746 263f
00000380: accb 273f 1d56 613f 2033 233f 6cc5 593f
00000390: 575b 543f 198e 313f d470 3f3f 504d 593f
000003a0: 25ca 4d3f e34b 233f 8a40 163f 53d9 5d3f
000003b0: 3523 3b3f 5e86 283f ee68 603f 8021 343f
000003c0: f31c 673f d8fb 2e3f 687a 713f d08a 353f
000003d0: bd8d 653f f7cb 923f d15a 533f 0b13 a73f
000003e0: 9c03 a83f f9a2 a93f 416f 923f f50c 913f
000003f0: 312a 723f 77a3 813f a730 6b3f 8801 983f

bn0.bias f4 [256]
0.64427793 0.011626567 -0.081603006 0.38561827 -0.03619366 -0.18474929 1.1809143 0.27742395
0.15519993 0.62384456 0.67584175 0.34670773 0.01869336 0.44010264 0.6500749 0.0063117696
-0.0958923 0.35258302 0.5198536 -0.22370565 -0.39157844 0.439618 0.37291837 -0.117271364
-0.10665237 0.029540345 -0.13776655 0.28228334 0.1425461 -0.5765011 -0.40311375 -0.14413299
-0.41301584 -0.16424231 0.008809229 -0.35520893 -0.372018 0.13229351 -0.0680184 -0.4129314
-0.12247482 -0.047079094 -0.11612153 -0.018675057 0.0031375377 -0.06636425 0.050677843 -0.04512979
-0.10318405 0.04855278 0.3235586 -0.10289389 -0.1156856 0.30291453 -0.24090545 0.3476226
0.43382332 -0.15751484 -0.09783289 0.4070104 -0.09255917 0.12288168 0.4291977 -0.08513951
0.26875037 0.21568672 0.53913474 0.21125256 -0.23728293 0.5395455 0.19163807 -0.018509554
-0.047140315 0.29011697 0.584524 0.06697431 0.11750895 0.3905351 0.08968307 0.065007664
0.27214384 -0.0394236 -0.15209255 -0.020393422 -0.2518171 0.32356614 0.056431904 -0.15155697
0.2854758 -0.28557375 -0.3835292 0.06290547 0.057840887 -0.68028444 -0.30820382 -0.19805115
-0.10322655 -0.23461837 -0.29767233 -0.01730759 -0.38783938 -0.27135822 0.022583343 -0.15955374
-0.0073865745 0.05122186 0.27024886 -0.14698705 0.0029032114 0.19107962 -0.25016394 -0.03411621
-0.045925573 -0.1844582 -0.33412644 -0.038693227 0.12532486 -0.012533401 -0.07986743 -0.08460905
-0.0043540923 0.08031519 0.02455575 -0.3603857 -0.43506175 -0.19462702 -0.221738 -0.24115002
-0.121487156 -0.26458228 -0.004900404 -0.010979418 0.01621162 -0.44669145 -0.41939047 0.2512311
-0.1565212 -0.36676425 -0.12425979 0.031270653 -0.11550952 -0.5269375 -0.31141508 -0.30698544
-0.34304217 -0.071207784 -0.14250188 -0.44669184 -0.48277473 -0.16372116 0.0056124884 -0.42517602
-0.16869067 0.13279949 -0.09794367 -0.15156098 -0.13822265 -0.09544629 -0.22236265 -0.42637622
-0.31541693 0.018602788 -0.10691845 0.064993516 -0.12136456 -0.35131735 -0.07908202 -0.06524376
-0.14334688 -0.20998117 0.060415685 -0.3053114 -0.103372104 0.15777433 -0.4899853 -0.2713793
-0.02729064 0.074422814 -0.02607825 0.06819775 0.1043984 -0.5263654 -0.13929136 -0.23387507
-0.48466146 -0.122340135 -0.28473422 -0.21523605 -0.45448002 0.056812767 0.11574407 -0.36978364
-0.1744089 -0.41266698 -0.09002981 -0.038612165 -0.17014384 -0.32982114 -0.08579749 -0.0616648
-0.41351855 -0.34876177 -0.21916036 0.06732284 0.015539138 -0.5077933 -0.17228311 -0.13933557
0.10611214 -0.050641526 -0.279666 0.038077556 0.14373076 -0.25878882 -0.24541573 0.1983085
0.07613787 -0.17446211 0.18038347 0.072907105 -0.028966738 -0.08761109 0.16269796 0.048970975
-0.06353903 -0.0108745955 0.31735003 -0.113568395 0.022515986 0.40324277 0.2592905 -0.10239772
-0.028931785 0.21311921 0.27202654 0.19433755 0.17974655 0.087980494 0.18274528 0.40485865
0.55037147 0.14814438 -0.18187533 0.7739125 0.39995265 -0.39867935 0.08873196 -0.18632194
-0.39092797 0.24700989 0.28623042 -0.26467642 -0.08112146 0.3844083 -0.11529387 -0.5445353
00000000: 66ef 243f 5b7d 3e3c 7a1f a7bd c26f c53e
00000010: ce3f 14bd eb2e 3dbe 3328 973f 830a 8e3e
00000020: bbec 1e3e 47b4 1f3f f703 2d3f ad83 b13e
00000030: d122 993c 2255 e13e 4f6b 263f f6d2 ce3b
00000040: 2f63 c4bd c385 b43e 2015 053f 1813 65be
00000050: f87c c8be 9c15 e13e 28ef be3e f82b f0bd
00000060: 8f6c dabd 98fe f13c ad12 0dbe 7187 903e
00000070: 9bf7 113e 9395 13bf ed64 cebe 9997 13be
00000080: d076 d3be 232f 28be 9654 103c f2dd b5be
00000090: 2579 bebe f377 073e 3b4d 8bbd bf6b d3be
000000a0: 14d4 fabd 02d6 40bd 20d1 edbd 6ffc 98bc
000000b0: 269f 4d3b fbe9 87bd 9293 4f3d 04da 38bd
000000c0: 2952 d3bd 48df 463d 79a9 a53e 08ba d2bd
000000d0: 92ec ecbd 9d17 9b3e ebaf 76be 97fb b13e
000000e0: 171e de3e 924b 21be 9c5c c8bd ab63 d03e
000000f0: aa8f bdbd 64a9 fb3d cdbf db3e a05d aebd
00000100: a699 893e fbdc 5c3e bc04 0a3f 9752 583e
00000110: 4cfa 72be a71f 0a3f c53c 443e 59a1 97bc
00000120: 3416 41bd 368a 943e 5da3 153f d429 893d
00000130: 88a8 f03d 37f4 c73e c2ab b73d bd22 853d
00000140: 7056 8b3e a47a 21bd 26be 1bbe 1b10 a7bc
00000150: 2cee 80be 76aa a53e 2425 673d c031 1bbe
00000160: e229 923e b936 92be f05d c4be 95d4 803d
00000170: 91ea 6c3d 1f27 2ebf e4cc 9dbe eccd 4abe
00000180: 7168 d3bd cc3f 70be 8268 98be a6c8 8dbc
00000190: e292 c6be 77ef 8abe b400 b93c 0e62 23be
000001a0: 140b f2bb 03ce 513d 0f5e 8a3e c683 16be
000001b0: ce43 3e3b 60aa 433e 7d15 80be 70bd 0bbd
000001c0: 741c 3cbd 9ce2 3cbe 9f12 abbe ca7c 1ebd
000001d0: 2955 003e e558 4dbc 8991 a3bd 8247 adbd
000001e0: c6ac 8ebb 4a7c a43d 2429 c93c 7984 b8be
000001f0: 6ac0 debe 4e4c 47be 490f 63be 08f0 76be
00000200: 42ce f8bd 5477 87be 9193 a0bb 04e3 33bc
00000210: 3bce 843c beb4 e4be 59ba d6be 5da1 803e
00000220: 1847 20be 86c8 bbbe eb7b febd a815 003d
00000230: 4190 ecbd 60e5 06bf cc71 9fbe 322d 9dbe
00000240: 39a3 afbe 63d5 91bd 03ec 11be cbb4 e4be
00000250: 402e f7be 85a6 27be f7e8 b73b acb0 d9be
00000260: 3fbd 2cbe 97fc 073e b196 c8bd cd32 1bbe
00000270: 3d8a 0dbe 5879 c3bd 09b3 63be fc4d dabe
00000280: 547e a1be e064 983c 0ff8 dabd 521b 853d
00000290: fc8d f8bd dedf b3be c1f5 a1bd 859e 85bd
000002a0: 86c9 12be 4e05 57be 7076 773d c751 9cbe
000002b0: c1b4 d3bd 988f 213e 5adf fabe 3af2 8abe
000002c0: 9f90 dfbc fd6a 983d 0ea2 d5bc 43ab 8b3d
000002d0: d4ce d53d e2bf 06bf 65a2 0ebe f27c 6fbe
000002e0: 8c25 f8be 778d fabd afc8 91be d766 5cbe
000002f0: 9bb1 e8be 81b4 683d 3a0b ed3d 4854 bdbe
00000300: 3f98 32be 1649 d3be 8d61 b8bd ca27 1ebd
00000310: 303a 2ebe 51de a8be 98b6 afbd 3b94 7cbd
00000320: b4b8 d3be e790 b2be 936b 60be 8fe0 893d
00000330: de97 7e3c befe 01bf fc6a 30be fcad 0ebe
00000340: 5251 d93d 7d6d 4fbd 6230 8fbe 36f7 1b3d
00000350: 282e 133e f87f 84be 434e 7bbe 6211 4b3e
00000360: 2cee 9b3d 32a6 32be 72b6 383e 5250 953d
00000370: a74b edbc 716d b3bd 4b9a 263e ca95 483d
00000380: c020 82bd 5c2b 32bc b47b a23e 8c96 e8bd
00000390: 7273 b83c d675 ce3e b9c1 843e e5b5 d1bd
000003a0: 5a02 edbc ec3b 5a3e 1047 8b3e 6c00 473e
000003b0: 7b0f 383e 1e2f b43d 9421 3b3e a249 cf3e
000003c0: 25e5 0c3f 29b3 173e 873d 3abe 211f 463f
000003d0: 98c6 cc3e b31f ccbe 1ab9 b53d 2ecb 3ebe
000003e0: b627 c8be 29f0 7c3e cb8c 923e ab83 87be
000003f0: 0223 a6bd 2ad1 c43e 311f ecbd aa66 0bbf

bn0.running_mean f4 [256]
2.3308656 4.6880045 6.4216866 7.2191133 6.383534 5.113713 4.9286876 2.2362728
2.2162292 1.0346237 1.214964 -0.6506679 -0.7113152 -0.68897444 -1.4777417 -1.9444356
-3.0483906 -1.9327779 -4.64266 -4.0371256 -4.6327267 -4.7007856 -5.723762 -6.154158
-5.5516644 -7.095615 -6.814083 -7.5914836 -6.6036057 -8.298526 -8.107204 -7.9689665
-8.529093 -8.918419 -9.783557 -8.514473 -10.722798 -10.083571 -10.518726 -10.374514
-11.419064 -11.726082 -11.161742 -12.552055 -12.433259 -13.336094 -11.943083 -13.612921
-13.260851 -13.188073 -13.44663 -13.779681 -14.425782 -13.083582 -14.900916 -14.13582
-14.382786 -13.715737 -14.568815 -14.607663 -13.842549 -14.643339 -14.330675 -15.104238
-13.390639 -15.126868 -14.2185755 -14.509141 -14.809883 -14.73531 -14.90249 -14.57515
-14.574 -14.73221 -15.049666 -15.5021715 -15.361782 -15.638649 -15.574988 -15.629753
-15.68667 -15.832804 -16.021013 -16.20374 -16.414858 -16.699825 -17.046545 -16.922152
-17.275871 -17.569668 -17.688469 -17.84599 -18.141663 -18.251974 -18.137697 -18.869383
-19.086117 -18.992079 -18.947107 -19.83143 -19.812178 -19.714119 -20.728605 -20.169142
-20.878643 -20.784546 -20.772673 -21.09438 -21.219702 -21.428026 -21.857489 -21.666025
-22.378876 -22.19703 -22.294117 -22.545404 -22.63238 -22.498726 -23.057442 -23.247557
-23.480434 -23.829817 -24.108631 -24.3552 -24.699509 -25.034622 -25.217602 -25.32037
-25.52539 -25.700617 -25.942448 -26.141344 -26.124699 -26.643167 -26.892292 -26.849104
-27.139343 -27.279516 -27.218855 -27.613295 -27.600683 -27.760609 -27.874237 -27.761158
-28.153915 -28.33925 -28.632227 -28.821764 -29.00835 -29.233654 -29.447815 -29.867512
-30.107918 -30.435934 -30.85764 -31.247122 -31.618628 -31.964186 -32.476364 -32.795506
-33.39136 -33.952038 -34.866493 -35.380184 -35.86681 -36.50455 -37.04007 -37.757133
-38.50788 -39.150406 -39.783035 -40.413525 -40.70775 -41.040203 -41.260174 -41.278507
-41.74194 -41.824883 -41.859837 -41.789852 -41.67941 -41.69281 -41.74068 -41.721096
-41.702347 -41.89248 -42.01653 -42.25068 -42.272232 -42.25758 -42.287704 -42.369766
-42.31199 -42.176365 -42.451496 -42.563343 -42.731712 -43.02456 -43.310093 -43.553223
-43.695602 -43.780697 -43.759754 -43.709476 -43.62971 -43.64949 -43.581524 -43.768208
-44.192944 -44.517574 -44.719025 -44.90199 -45.28874 -45.487988 -45.762897 -46.050694
-46.309723 -46.662212 -47.00247 -47.50268 -47.913357 -48.1589 -48.39363 -48.663883
-49.036644 -49.489323 -49.817314 -49.93121 -50.307926 -50.58996 -50.9823 -51.395367
-51.629467 -52.12814 -52.408424 -52.701237 -53.04497 -53.273914 -53.420685 -53.64276
-53.76075 -53.788326 -53.960453 -53.987175 -54.22185 -54.473763 -54.650677 -54.516117
-54.746563 -54.639828 -56.36889 -60.56533 -63.417564 -67.96852 -74.86367 -84.72126
00000000: e72c 1540 2204 9640 757e cd40 fa02 e740
00000010: e945 cc40 89a3 a340 cfb7 9d40 181f 0f40
00000020: b3d6 0d40 8d6e 843f f183 9b3f 2c92 26bf
00000030: c118 36bf a160 30bf a426 bdbf 44e3 f8bf
00000040: d518 43c0 4465 f7bf ac90 94c0 2230 81c0
00000050: 4c3f 94c0 d66c 96c0 0f29 b7c0 ddee c4c0
00000060: 3ca7 b1c0 470f e3c0 f80c dac0 6fed f2c0
00000070: bd50 d3c0 c3c6 04c1 1cb7 01c1 c601 ffc0
00000080: 2a77 08c1 d8b1 0ec1 7389 1cc1 483b 08c1
00000090: 9590 2bc1 4f56 21c1 b44c 28c1 02fe 25c1
000000a0: 7cb4 36c1 089e 3bc1 7f96 32c1 38d5 48c1
000000b0: a1ee 46c1 a460 55c1 de16 3fc1 86ce 59c1
000000c0: 722c 54c1 5902 53c1 6525 57c1 9379 5cc1
000000d0: 01d0 66c1 5a56 51c1 276a 6ec1 522c 62c1
000000e0: e41f 66c1 a973 5bc1 de19 69c1 fdb8 69c1
000000f0: 157b 5dc1 1e4b 6ac1 724a 65c1 f5aa 71c1
00000100: 0f40 56c1 a707 72c1 497f 63c1 7125 68c1
00000110: 48f5 6cc1 d4c3 6bc1 9970 6ec1 d033 69c1
00000120: 1b2f 69c1 22b7 6bc1 6fcb 70c1 e508 78c1
00000130: dcc9 75c1 e837 7ac1 2733 79c1 7813 7ac1
00000140: 9afc 7ac1 2a53 7dc1 092b 80c1 42a1 81c1
00000150: a151 83c1 3e99 85c1 535f 88c1 9160 87c1
00000160: fc34 8ac1 ae8e 8cc1 fc81 8dc1 96c4 8ec1
00000170: 2022 91c1 0b04 92c1 011a 91c1 7ff4 96c1
00000180: 5eb0 98c1 c7ef 97c1 ad93 97c1 c5a6 9ec1
00000190: 577f 9ec1 84b6 9dc1 2fd4 a5c1 675a a1c1
000001a0: 7607 a7c1 c046 a6c1 6f2e a6c1 4ac1 a8c1
000001b0: f3c1 a9c1 996c abc1 23dc aec1 0554 adc1
000001c0: f007 b3c1 8493 b1c1 5a5a b2c1 fd5c b4c1
000001d0: 1d0f b5c1 64fd b3c1 a475 b8c1 fffa b9c1
000001e0: eed7 bbc1 77a3 bec1 7ade c0c1 73d7 c2c1
000001f0: 9898 c5c1 e846 c8c1 a6bd c9c1 1e90 cac1
00000200: 0034 ccc1 dd9a cdc1 228a cfc1 7921 d1c1
00000210: 62ff d0c1 3525 d5c1 6a23 d7c1 f7ca d6c1
00000220: 601d d9c1 733c dac1 37c0 d9c1 07e8 dcc1
00000230: 33ce dcc1 ba15 dec1 70fe dec1 da16 dec1
00000240: 383b e1c1 c9b6 e2c1 cd0e e5c1 f992 e6c1
00000250: 1a11 e8c1 86de e9c1 2095 ebc1 aaf0 eec1
00000260: 04dd f0c1 cb7c f3c1 72dc f6c1 1bfa f9c1
00000270: f3f2 fcc1 a7b6 ffc1 cce7 01c2 992e 03c2
00000280: c190 05c2 e3ce 07c2 4a77 0bc2 4f85 0dc2
00000290: 9d77 0fc2 a904 12c2 0829 14c2 4e07 17c2
000002a0: 1208 1ac2 049a 1cc2 d421 1fc2 73a7 21c2
000002b0: bcd4 22c2 2b29 24c2 6b0a 25c2 311d 25c2
000002c0: bff7 26c2 ae4c 27c2 7970 27c2 cf28 27c2
000002d0: b7b7 26c2 70c5 26c2 75f6 26c2 67e2 26c2
000002e0: 34cf 26c2 e691 27c2 ed10 28c2 b200 29c2
000002f0: c416 29c2 c307 29c2 9c26 29c2 a47a 29c2
00000300: 7a3f 29c2 99b4 28c2 55ce 29c2 dd40 2ac2
00000310: 46ed 2ac2 2619 2cc2 893d 2dc2 8036 2ec2
00000320: 4cc8 2ec2 6f1f 2fc2 fd09 2fc2 81d6 2ec2
00000330: d384 2ec2 1499 2ec2 7b53 2ec2 a512 2fc2
00000340: 93c5 30c2 ff11 32c2 48e0 32c2 a39b 33c2
00000350: ab27 35c2 b3f3 35c2 350d 37c2 e933 38c2
00000360: 283d 39c2 1ba6 3ac2 8702 3cc2 bf02 3ec2
00000370: 47a7 3fc2 b7a2 40c2 1493 41c2 d1a7 42c2
00000380: 8625 44c2 11f5 45c2 ee44 47c2 8fb9 47c2
00000390: 513b 49c2 1e5c 4ac2 e0ed 4bc2 db94 4dc2
000003a0: 9384 4ec2 3783 50c2 3aa2 51c2 11ce 52c2
000003b0: 0d2e 54c2 7d18 55c2 c8ae 55c2 3092 56c2
000003c0: 020b 57c2 3f27 57c2 81d7 57c2 def2 57c2
000003d0: 2de3 58c2 22e5 59c2 4b9a 5ac2 8110 5ac2
000003e0: 7bfc 5ac2 2f8f 5ac2 be79 61c2 e642 72c2
000003f0: 96ab 7dc2 e2ef 87c2 33ba 95c2 4971 a9c2

bn0.running_var f4 [256]
257.777 226.92532 231.8643 134.35643 82.56215 79.31887 84.66996 86.46301
73.23735 92.91397 95.251526 84.71467 83.49298 99.15932 102.62168 88.50064
100.91855 107.74998 109.91707 95.24551 111.99845 113.69137 99.8176 102.26933
112.109665 113.00776 97.575455 113.75352 114.59461 104.18209 100.45747 115.17669
115.21136 99.94607 108.948814 113.97602 115.697105 100.628876 116.46994 115.599785
101.07314 101.911766 112.92865 112.40783 96.72479 112.6841 113.2986 104.43218
99.223724 114.30012 115.84123 100.484566 107.436775 114.58481 114.052956 98.306694
113.6634 114.180374 101.78691 102.33323 115.54642 116.40894 102.6584 119.34173
120.52692 118.39994 105.71489 108.57936 120.40601 120.44092 110.82393 106.807365
106.46429 108.082344 112.9528 124.771675 128.93535 121.96601 113.42236 109.51486
108.261765 107.81429 107.63872 108.00298 108.87012 110.11939 111.41854 110.03079
108.96366 106.7447 104.74855 104.568245 105.289116 105.00739 104.18549 105.832985
105.35678 103.91581 103.261955 103.78911 100.30877 99.57445 102.63524 99.95391
99.662544 99.369675 100.000694 100.64498 100.174995 100.610176 100.5832 99.36556
99.82067 100.26344 99.707375 99.2471 101.29004 102.41553 101.23971 99.718254
98.87805 97.42672 96.84408 97.535805 99.1052 98.89519 97.71179 95.82852
94.22454 92.05789 91.93464 93.52356 94.37399 95.57652 95.72981 93.754326
91.78867 90.61967 89.73192 88.65578 87.86816 87.16446 87.78021 87.59308
87.397835 86.01294 86.11816 87.11055 88.67293 90.80744 92.14497 94.23966
93.839905 93.044624 93.036995 92.78544 92.77716 92.78592 92.35838 92.22578
92.70804 92.83768 94.50926 94.934494 94.735115 94.55779 94.3424 95.53497
95.9678 95.85381 95.81755 96.73706 96.06854 95.880264 95.007065 95.763626
97.216774 99.58963 100.474365 100.86512 100.99368 102.100365 102.68794 102.65889
102.56692 102.30466 102.07459 102.11034 100.664764 98.932236 98.23116 98.599525
98.86274 97.34688 97.835594 99.28681 99.36204 102.1551 102.89767 106.003265
107.29573 103.677536 99.69253 98.18501 96.2398 95.81232 95.375435 94.70454
95.396065 95.88465 94.24732 95.024635 99.31653 96.88372 97.08854 97.06971
96.276886 97.069496 99.221924 102.5715 105.94395 109.35623 108.451996 107.30671
107.76555 109.01083 108.60064 106.479416 107.33546 108.19437 108.694916 108.876396
107.76192 107.26219 105.83741 104.8957 103.1184 99.716515 95.68446 95.038994
95.06376 95.760056 96.32898 97.71594 98.49752 98.461784 97.99256 100.2873
96.98811 123.23446 165.49644 122.86462 105.87834 88.52556 67.45819 71.81265
00000000: 75e3 8043 e2ec 6243 43dd 6743 3f5b 0643
00000010: d21f a542 43a3 9e42 0557 a942 10ed ac42
00000020: 8679 9242 f4d3 b942 c880 be42 e96d a942
00000030: 68fc a642 9251 c642 4d3e cd42 5400 b142
00000040: 4cd6 c942 fd7f d742 8ad5 db42 b37d be42
00000050: 35ff df42 fb61 e342 9ca2 c742 e689 cc42
00000060: 2638 e042 f903 e242 a226 c342 cd81 e342
00000070: 7130 e542 3b5d d042 3aea c842 775a e642
00000080: 376c e642 63e4 c742 cbe5 d942 b9f3 e342
00000090: eb64 e742 fc41 c942 9cf0 e842 1733 e742
000000a0: 7325 ca42 d3d2 cb42 78db e142 cfd0 e042
000000b0: 1873 c142 425e e142 e298 e242 47dd d042
000000c0: 8c72 c642 a999 e442 b6ae e742 19f8 c842
000000d0: a1df d642 6c2b e542 1d1b e442 079d c442
000000e0: a953 e342 5a5c e442 e692 cb42 9daa cc42
000000f0: c417 e742 61d1 e842 1a51 cd42 f7ae ee42
00000100: c80d f142 c5cc ec42 066e d342 a228 d942
00000110: e1cf f042 c0e1 f042 daa5 dd42 5f9d d542
00000120: b7ed d442 292a d842 d5e7 e142 198b f942
00000130: 73ef 0043 99ee f342 40d8 e242 9c07 db42
00000140: 0686 d842 eba0 d742 0647 d742 8701 d842
00000150: 80bd d942 213d dc42 4bd6 de42 c40f dc42
00000160: 65ed d942 497d d542 427f d142 f122 d142
00000170: 0794 d242 c903 d242 f95e d042 7daa d342
00000180: acb6 d242 e5d4 cf42 1f86 ce42 0694 cf42
00000190: 179e c842 1e26 c742 3e45 cd42 67e8 c742
000001a0: 3953 c742 46bd c642 5b00 c842 3b4a c942
000001b0: 9959 c842 6938 c942 992a c942 2bbb c642
000001c0: 2fa4 c742 e286 c842 2d6a c742 847e c642
000001d0: 8094 ca42 c0d4 cc42 bb7a ca42 bf6f c742
000001e0: 90c1 c542 7bda c242 2bb0 c142 5512 c342
000001f0: dd35 c642 56ca c542 706c c342 34a8 bf42
00000200: f772 bc42 a41d b842 89de b742 100c bb42
00000210: 7cbf bc42 2e27 bf42 aa75 bf42 3782 bb42
00000220: cd93 b742 453d b542 be76 b342 c24f b142
00000230: 7fbc af42 3454 ae42 788f af42 a82f af42
00000240: b1cb ae42 a006 ac42 7f3c ac42 9a38 ae42
00000250: 8a58 b142 699d b542 3a4a b842 b57a bc42
00000260: 08ae bb42 d916 ba42 f112 ba42 2592 b942
00000270: e88d b942 6492 b942 7eb7 b842 9973 b842
00000280: 846a b942 e4ac b942 be04 bd42 76de bd42
00000290: 6178 bd42 971d bd42 4faf bc42 e811 bf42
000002a0: 83ef bf42 27b5 bf42 96a2 bf42 6079 c142
000002b0: 1823 c042 b2c2 bf42 9e03 be42 fa86 bf42
000002c0: fd6e c242 e42d c742 e0f2 c842 f1ba c942
000002d0: c4fc c942 6333 cc42 3a60 cd42 5a51 cd42
000002e0: 4322 cd42 fc9b cc42 3126 cc42 7e38 cc42
000002f0: 5c54 c942 4edd c542 5b76 c442 f532 c542
00000300: b9b9 c542 9ab1 c242 d3ab c342 d992 c642
00000310: 5db9 c642 694f cc42 9bcb cd42 ac01 d442
00000320: 6a97 d642 e65a cf42 9362 c742 ba5e c442
00000330: c77a c042 e89f bf42 39c0 be42 b968 bd42
00000340: c9ca be42 f1c4 bf42 a17e bc42 9d0c be42
00000350: 10a2 c642 77c4 c142 552d c242 b123 c242
00000360: c48d c042 9523 c242 a071 c642 9c24 cd42
00000370: 4de3 d342 64b6 da42 6ce7 d842 099d d642
00000380: f687 d742 8c05 da42 8733 d942 76f5 d442
00000390: c1ab d642 8463 d842 cc63 d942 b7c0 d942
000003a0: 1a86 d742 3e86 d642 c1ac d342 99ca d142
000003b0: 9f3c ce42 db6e c742 725e bf42 f713 be42
000003c0: a520 be42 2685 bf42 70a8 c042 906e c342
000003d0: bbfe c442 6fec c442 31fc c342 1993 c842
000003e0: eaf9 c142 0b78 f642 177f 2543 afba f542
000003f0: b6c1 d342 160d b142 98ea 8642 14a0 8f42

conv1.bn.weight f4 [64]
1.3635442 0.91648954 1.3580213 1.0046289 0.5135574 0.5602763 1.0282774 1.1335577
0.5322801 0.6799511 0.723593 1.1009425 1.0019925 1.1242006 0.9117071 0.65516746
0.6003226 0.9117115 1.0855745 0.66282064 1.2129034 0.95699936 0.9263271 1.1856784
0.86547333 0.73727113 0.3592287 0.67193514 0.52592087 0.85143256 0.9874585 1.0059018
0.84771556 1.6771418 1.1376493 1.0909736 1.0864587 0.50524616 0.88959557 1.1085935
0.87278783 0.80226725 1.2311082 0.97952586 0.8981223 0.72808796 0.9826102 0.40946072
0.6181363 1.1125032 0.87843513 0.699117 0.5434751 1.2411515 1.3999282 1.3887265
0.8384511 0.6886949 0.78103614 0.8681408 0.64298195 0.98212576 0.5048623 0.8207593
00000000: 9e88 ae3f 0f9f 6a3f a4d3 ad3f ae97 803f
00000010: 7f78 033f 456e 0f3f 989e 833f 6b18 913f
00000020: 8243 083f 4611 2e3f 643d 393f afeb 8c3f
00000030: 4a41 803f cee5 8f3f a365 693f 0eb9 273f
00000040: beae 193f ed65 693f 1bf4 8a3f 9dae 293f
00000050: 6b40 9b3f e9fd 743f c623 6d3f 4fc4 973f
00000060: a98f 5d3f cdbd 3c3f d3ec b73e f103 2c3f
00000070: c0a2 063f 7cf7 593f 15ca 7c3f 64c1 803f
00000080: e303 593f 95ac d63f 7e9e 913f 06a5 8b3f
00000090: 1411 8b3f d057 013f 89bc 633f 64e6 8d3f
000000a0: 066f 5f3f 6361 4d3f f494 9d3f 35c2 7a3f
000000b0: 58eb 653f f963 3a3f 588c 7b3f d6a4 d13e
000000c0: 2e3e 1e3f 8166 8e3f 20e1 603f 55f9 323f
000000d0: 2f21 0b3f 0dde 9e3f d930 b33f cac1 b13f
000000e0: bba4 563f 4f4e 303f fcf1 473f 7a3e 5e3f
000000f0: 779a 243f 986c 7b3f a83e 013f 481d 523f

conv1.bn.bias f4 [64]
0.20238042 -0.46304283 -0.7689105 0.26036203 -0.4523739 -0.6716663 -0.37492743 -0.009554292
0.40716514 -0.6350644 0.2743514 0.62234986 0.4520297 0.5484238 -0.2982223 -0.07330963
-0.5303944 -0.4393688 0.89604247 -0.6337839 -0.062279306 0.3746261 0.43486676 -0.5940426
0.03580337 -0.27302155 0.06111077 -0.7546416 -0.10862652 0.18063465 -0.85139143 -1.0787742
0.33995572 0.022232916 0.7362006 -0.19387634 -0.6660503 -0.39393017 0.29946098 -0.5739066
-1.0523428 -0.09481808 -0.5361239 -0.76456726 -0.6494406 -0.54857844 0.44920188 -0.48519135
-0.440816 0.13682872 -0.47920215 -0.5622614 -0.37404028 0.82129246 0.24932845 -0.009916105
0.28268176 -0.67609733 -0.55527323 0.25611544 -0.49550635 0.7114829 -0.11995104 0.79518145
00000000: d03c 4f3e f313 edbe 52d7 44bf 2c4e 853e
00000010: 8d9d e7be 53f2 2bbf 7df6 bfbe 9b89 1cbc
00000020: f377 d03e 9593 22bf c977 8c3e 5252 1f3f
00000030: 7070 e73e 8165 0c3f 98b0 98be 5c23 96bd
00000040: edc7 07bf f3f4 e0be 0a63 653f a93f 22bf
00000050: 9618 7fbd fece bf3e dba6 de3e 2d13 18bf
00000060: 8ea6 123d 7bc9 8bbe 494f 7a3d 3130 41bf
00000070: 9577 debd 4af8 383e caf4 59bf 4615 8abf
00000080: ad0e ae3e ce21 b63c a477 3c3f 8587 46be
00000090: 4682 2abf 37b1 c9be f352 993e 8beb 12bf
000000a0: 2bb3 86bf fb2f c2bd 6a3f 09bf aeba 43bf
000000b0: bd41 26bf a36f 0cbf cafd e53e 006b f8be
000000c0: a2b2 e1be d41c 0c3e fc59 f5be 5df0 0fbf
000000d0: 3582 bfbe 3940 523f f54f 7f3e 2977 22bc
000000e0: aabb 903e b714 2dbf 6326 0ebf 9021 833e
000000f0: 02b3 fdbe be23 363f e4a8 f5bd 0391 4b3f

conv1.bn.running_mean f4 [64]
-0.0022956473 -0.00096321 -0.0005190216 0.0013745826 0.0036886302 0.005339723 0.00035172436 0.0007541668
0.0003662755 0.0002477855 -2.3305898e-05 -0.00024234914 0.000104243976 7.2448805e-05 -0.001308862 -0.012539759
0.00062827615 0.00053542265 -0.00025828878 0.0010206385 -8.727213e-05 -0.0001423378 0.00090991653 -0.001660022
-0.0037108557 -0.01267383 -0.0013769594 -0.003679862 0.00227341 0.00021825255 -0.00045236747 -0.0010297552
-0.0010196064 -0.00025837452 0.00021325756 0.00015081685 0.00046014253 -0.002527386 -0.00044252948 5.5460376e-05
-0.0070097125 7.249945e-08 -0.0011186908 -0.00090891053 -0.00056711613 0.0038702248 -0.0008077733 0.0024297656
-0.0106406035 -0.00014533132 -0.0015984388 -0.0012165557 0.006424852 0.0007612921 0.002037746 0.0004891992
-0.0006919386 -0.000933356 -0.00044440894 -0.0011107203 0.0053039556 0.0015005245 0.002622001 -0.0001990979
00000000: 9272 16bb ee7f 7cba f30e 08ba 572b b43a
00000010: f2bc 713b d8f8 ae3b a567 b839 47b3 453a
00000020: aa08 c039 35e9 8139 0981 c3b7 1a1f 7eb9
00000030: 8f9d da38 a8ef 9738 1f8e abba 9073 4dbc
00000040: e6b2 243a 9b5b 0c3a ef6a 87b9 f2c6 853a
00000050: de05 b7b8 8340 15b9 7787 6e3a 1895 d9ba
00000060: d431 73bb e5a5 4fbc 177b b4ba d729 71bb
00000070: 7efd 143b b9da 6439 bc2b edb9 daf8 86ba
00000080: 50a4 85ba 7176 87b9 e49d 5f39 9724 1e39
00000090: 493f f139 80a2 25bb 4d03 e8b9 209e 6838
000000a0: bbb1 e5bb ffb0 9b33 09a1 92ba f443 6eba
000000b0: 85aa 14ba 99a3 7d3b c0c0 53ba b43c 1f3b
000000c0: ed55 2ebc 1464 18b9 b582 d1ba d674 9fba
000000d0: 9187 d23b 7391 473a b48b 053b 9a3d 003a
000000e0: 3763 35ba 76ac 74ba 8fff e8b9 9795 91ba
000000f0: cecc ad3b 3fad c43a e1d5 2b3b f0c4 50b9

conv1.bn.running_var f4 [64]
0.18982662 0.05921192 0.021044819 0.078011684 0.02186988 0.032319583 0.04173323 0.057658345
0.003764338 0.009934538 0.004639831 0.039545413 0.021097064 0.0026811175 0.1743915 0.17870286
0.0077912617 0.0054618395 0.003649246 0.024506722 0.041333094 0.0045831744 0.07560018 0.0544827
0.2054525 0.2617054 0.005312318 0.027767526 0.012905198 0.0054219807 0.081432045 0.025286937
0.007944512 0.12096409 0.054485824 0.16101165 0.04190592 0.01615 0.0051280707 0.020292012
0.16404201 9.275254e-11 0.030296436 0.018498119 0.0046304855 0.038190577 0.15398608 0.009730841
0.19555417 0.062458985 0.017848011 0.010952267 0.089473926 0.12782794 0.2014818 0.11739185
0.09405812 0.043095026 0.023444928 0.044475887 0.1122799 0.14099918 0.020389186 0.0057600904
00000000: e961 423e 3388 723d 2f66 ac3c 97c4 9f3d
00000010: 7628 b33c 8a61 043d 77f0 2a3d 282b 6c3d
00000020: 1db3 763b 79c4 223c b909 983b 5ffa 213d
00000030: c0d3 ac3c b0b5 2f3b af93 323e e2fd 363e
00000040: d74d ff3b 3bf9 b23b 3028 6f3b 52c2 c83c
00000050: e44c 293d 742e 963b 44d4 9a3d 4029 5f3d
00000060: 2462 523e 40fe 853e f412 ae3b b978 e33c
00000070: 5370 533c dfaa b13b d8c5 a63d 8d26 cf3c
00000080: b329 023c 05bc f73d 872c 5f3d 3de0 243e
00000090: 8ba5 2b3d 014d 843c 6009 a83b 6f3b a63c
000000a0: a1fa 273e 0af7 cb2e 3b30 f83c 5e89 973c
000000b0: 54bb 973b b96d 1c3d 87ae 1d3e 1b6e 1f3c
000000c0: 5a3f 483e fed4 7f3d fe35 923c 2371 333c
000000d0: 1b3e b73d 54e5 023e 3f51 4e3e 236b f03d
000000e0: 8ba1 c03d 6984 303d 940f c03c 592c 363d
000000f0: 01f3 e53d 1762 103e 3907 a73c 24bf bc3b

conv1.ch_conv1.weight f4 [64, 1, 1, 1]
-1.2282639 -0.8142625 0.42706874 0.77759635 -0.21700916 0.20566264 0.8306854 -0.6178963
-0.23806219 -0.28610778 0.20000029 -0.4943278 0.55166 0.17217894 -1.0794172 -0.5742827
0.33293492 0.23026527 0.19259836 0.4072801 0.86428726 -0.2558739 0.83992505 -0.74120796
-1.158425 0.68648964 0.20157467 0.2817868 0.40137208 0.20315908 1.0510025 -0.42535797
0.18563125 -0.9035734 0.61793834 -0.8395357 0.5509916 -0.1872515 -0.21678711 -0.35286537
0.72233987 6.709768e-05 0.55241895 -0.37085685 0.23746406 -0.2677863 0.904458 -0.18793318
0.6841979 0.73421144 -0.50642395 0.24937667 -0.53620917 -0.92920923 1.0869513 -0.7192989
-0.7442079 -0.4691133 0.44125718 0.6275362 0.7713777 -1.0144926 -0.27570647 0.24744998
00000000: c037 9dbf 8273 50bf c1a8 da3e 8e10 473f
00000010: a637 5ebe 3a99 523e cca7 543f 742e 1ebf
00000020: 93c6 73be b87c 92be e0cc 4c3e 8918 fdbe
00000030: 9739 0d3f ad4f 303e 582a 8abf 3104 13bf
00000040: 7276 aa3e a9ca 6b3e 8138 453e 0487 d03e
00000050: ee41 5d3f e701 83be 5405 573f cebf 3dbf
00000060: 4547 94bf c9bd 2f3f 9769 4e3e 5c46 903e
00000070: a480 cd3e ef08 503e 4087 863f 85c8 d9be
00000080: 1e16 3e3e 9650 67bf 3531 1e3f d0eb 56bf
00000090: c90d 0d3f dbbe 3fbe 71fd 5dbe c5aa b4be
000000a0: 44eb 383f cbb6 8c38 546b 0d3f f3e0 bdbe
000000b0: c729 733e 491b 89be 8f8a 673f 8e71 40be
000000c0: 9827 2f3f 48f5 3b3f 00a5 01bf 995c 7f3e
000000d0: 0145 09bf a8e0 6dbf 3821 8b3f f923 38bf
000000e0: 6984 3ebf 9e2f f0be 76ec e13e 36a6 203f
000000f0: 0279 453f e5da 81bf 6629 8dbe 8763 7d3e

conv1.sp_conv1.weight f4 [64, 1, 3, 1]
-0.03961742 -0.29915392 0.1468419 -0.08814129 -0.29276013 0.620079 -0.12162125 0.23471594
-0.38278964 -0.22848937 0.5347947 -0.027487349 0.83497185 -0.14346339 0.13505079 -0.15400673
0.28257146 -0.2659517 -0.07800279 -0.13194616 -0.019792335 0.34122753 -0.6580383 -0.18911576
-0.3136603 0.12223556 0.44237152 -0.21926552 -0.44016585 -0.13640457 0.5823571 0.08435261
0.22562999 -0.1246061 0.18495604 -0.5602526 0.60295624 -0.66679585 -0.30120015 0.6450797
-0.32042998 -0.5617666 0.117313296 -0.5099623 0.32077986 -0.21393171 -0.26212797 -0.26774693
0.40154243 0.09138519 -0.4968945 -0.027729155 -0.49178717 0.39263743 0.04370098 0.3561871
-0.7022631 0.069475606 -0.07677666 -0.17026249 0.49426603 0.09997528 -0.46362677 0.14849457
0.7373519 -0.6113965 -0.32872334 -0.033173546 0.47882006 0.34392762 -0.459647 0.40281835
0.02490424 -0.6581661 0.39916715 0.39057684 0.078630015 0.1659901 -0.40599978 0.15586486
-0.07709029 0.31662473 -0.2811584 0.8042659 -0.4499695 0.01939956 0.24163783 0.5753612
-0.48479787 0.029952776 -0.2414621 0.44515455 -0.33668405 0.034843665 -0.33196175 0.28885385
0.68965584 -0.552326 -0.29914105 0.6039743 -0.60606366 0.38338324 -0.59264743 -0.08452334
0.8276947 -0.49316794 0.11127393 -0.42694065 0.34984872 0.23375097 -0.2871051 -0.66511
-0.5460733 -0.3105038 0.2073585 -0.040064313 -0.11088701 -0.60062903 0.5875648 -0.5191903
-0.363751 -0.023473721 -0.3598974 -0.09910153 -0.3488459 -0.22950418 0.6953899 0.20351125
-0.1619425 0.1655391 -0.44851696 -0.291792 0.56850433 0.09436334 -0.2376909 0.42911184
0.29844382 0.5924044 -0.61788833 0.41529322 0.662668 -0.043023586 0.105176896 0.31149018
0.12215216 -0.17957713 0.51538765 -0.044996142 0.3482599 -0.7181103 -0.17093743 0.07620783
0.01054543 -0.34623882 -0.050028328 0.106379695 -0.49445462 0.46468493 -0.1838083 0.33035615
0.34058854 0.21291788 0.44747365 -0.5497099 0.6542929 0.2643703 0.34887856 -0.15714169
0.70841736 0.013435333 -0.7046247 0.18514682 -0.14431596 0.45118117 0.7986453 -0.26059762
-0.44858226 -0.3964044 0.44919625 -0.3650094 -0.34312972 0.51930827 -0.25530165 0.09364965
-0.3351045 0.34491962 -0.32151976 0.5304616 0.00735651 -0.11831954 0.24006045 0.39976186
00000000: e045 22bd b42a 99be b95d 163e 6c83 b4bd
00000010: a8e4 95be 7fbd 1e3f 9014 f9bd 6059 703e
00000020: 01fd c3be 1ef9 69be 4ee8 083f 262d e1bc
00000030: b7c0 553f 11e8 12be c14a 0a3e f1b3 1dbe
00000040: 35ad 903e d22a 88be edbf 9fbd e51c 07be
00000050: 8923 a2bc 60b5 ae3e 3375 28bf 90a7 41be
00000060: 1598 a0be a356 fa3d 857e e23e 2487 60be
00000070: 6b5d e1be a4ad 0bbe 5b15 153f 10c1 ac3d
00000080: 8c0b 673e 7c31 ffbd 1e65 3d3e b76c 0fbf
00000090: 575b 1a3f 22b3 2abf e836 9abe f123 253f
000000a0: 660f a4be f0cf 0fbf f441 f03d e48c 02bf
000000b0: 423d a43e ea10 5bbe a335 86be 2016 89be
000000c0: f896 cd3e 2928 bb3d f568 febe 4128 e3bc
000000d0: 87cb fbbe c607 c93e ccff 323d 285e b63e
000000e0: 84c7 33bf 3a49 8e3d 153d 9dbd 4a59 2ebe
000000f0: 7010 fd3e d7bf cc3d 7d60 edbe f60e 183e
00000100: 18c3 3c3f 7b84 1cbf 6d4e a8be fce0 07bd
00000110: e727 f53e 4817 b03e da56 ebbe 353e ce3e
00000120: fa03 cc3c 937d 28bf a35f cc3e b0f9 c73e
00000130: c608 a13d 4ff9 293e 34df cfbe 0a9b 1f3e
00000140: 84e1 9dbd a31c a23e fef3 8fbe 5fe4 4d3f
00000150: 6762 e6be d3eb 9e3c e86f 773e df4a 133f
00000160: 6d37 f8be 865f f53c d741 77be 4ceb e33e
00000170: da61 acbe 3bb8 0e3d e4f6 a9be a7e4 933e
00000180: 498d 303f 3d65 0dbf 0429 99be 0f9e 1a3f
00000190: fd26 1bbf cf4a c43e beb7 17bf 931a adbd
000001a0: cde3 533f 8280 fcbe 96e3 e33d f797 dabe
000001b0: 5f1f b33e 6a5c 6f3e 71ff 92be a644 2abf
000001c0: 76cb 0bbf 5bfa 9ebe c955 543e 7a1a 24bd
000001d0: bb18 e3bd d3c2 19bf a66a 163f a8e9 04bf
000001e0: 923d babe f64b c0bc 7944 b8be bef5 cabd
000001f0: ee9b b2be 2503 6bbe 1305 323f 4165 503e
00000200: 41d4 25be 1583 293e 04a4 e5be c365 95be
00000210: 8089 113f 9141 c13d 3e65 73be 8cb4 db3e
00000220: a1cd 983e d1a7 173f ee2d 1ebf 50a1 d43e
00000230: 9ca4 293f 8039 30bd fc66 d73d a47b 9f3e
00000240: e92a fa3d 11e3 37be 72f0 033f e04d 38bd
00000250: 1f4f b23e 14d6 37bf 390a 2fbe da12 9c3d
00000260: bdc6 2c3c 3746 b1be 81ea 4cbd 99dd d93d
00000270: 2829 fdbe 2feb ed3e 3e38 3cbe 7124 a93e
00000280: 9f61 ae3e 2507 5a3e 441b e53e cab9 0cbf
00000290: bd7f 273f 8b5b 873e 36a0 b23e c0e9 20be
000002a0: d75a 353f df1f 5c3c 4962 34bf 2197 3d3e
000002b0: 90c7 13be 3801 e73e 0574 4c3f 0d6d 85be
000002c0: 93ac e5be 84f5 cabe 0dfd e53e 83e2 babe
000002d0: b3ae afbe 63f1 043f e6b6 82be 63cb bf3d
000002e0: d192 abbe 4e99 b03e 3d9e a4be 55cc 073f
000002f0: e10e f13b 8451 f2bd 68d2 753e 96ad cc3e

conv1.sp_conv2.weight f4 [64, 1, 1, 3]
0.48769522 0.3759319 -0.6532558 0.14628018 -0.36317757 -0.053300593 0.14074713 -0.42952648
0.57006097 0.33561355 0.02772062 -0.6370914 -0.2774346 0.24658385 0.023578497 0.1034924
-0.58076364 -0.6098452 0.42361504 -0.2617464 0.077827685 -0.007975774 -0.10839255 0.6188897
-0.32693985 0.07372177 0.049989246 -0.0014911725 0.11718508 0.65633595 -0.42649946 -0.35324445
-0.12947369 0.3627629 -0.38883558 0.47953942 0.14299239 0.3556018 -0.12168232 0.060413014
0.19384491 -0.036576957 0.6115513 -0.30142933 -0.21615145 0.13270019 0.09200346 -0.50754815
0.22417049 -0.03681704 -0.2399025 0.44780454 -0.14291993 -0.2244239 0.12820369 -0.06950952
0.28385994 -0.642921 0.09249911 0.49335608 -0.021464908 -0.13505459 0.02054337 0.038576294
-0.23916382 -0.09728343 0.4842675 -0.33949694 -0.24053581 0.098240346 -0.326339 -0.14112966
0.4425421 -0.29917023 -0.019852454 0.44369957 0.22050709 -0.30833066 -0.1378812 0.57874525
0.1925568 -0.39577588 0.152823 0.025062405 0.080177106 0.23469602 -0.3613432 -0.3253031
0.6051581 -0.43952003 -0.084229894 0.32108724 -0.086872466 -0.72163045 0.5320961 0.014024914
0.41356876 -0.40339008 0.4177755 -0.03917572 -0.3827324 0.026382037 -0.062298562 -0.28415853
0.16808188 0.40324897 -0.24076624 0.62423706 -0.37819406 0.42442372 -0.3852051 0.60445523
0.12484463 0.15703706 0.4064283 0.15072665 -0.61810493 0.26893502 0.22714247 0.05503464
0.67636454 -0.023725113 0.57650447 0.19664231 0.43797264 0.0034654608 -0.30819222 -0.27096787
-0.0794767 0.35199803 -0.21704167 0.31544402 -0.10805402 0.049933992 -0.23798725 -0.5173446
0.21459348 -0.30758023 0.12565874 0.048507445 -0.51820564 -0.3171657 0.47380295 0.079592444
0.6923737 -0.5414196 0.21407877 0.19289011 0.34513494 -0.09656979 0.2862648 0.20486496
-0.489263 0.72622436 0.14099434 -0.24302769 0.3737441 0.36269557 0.09439084 -0.6473537
-0.0786699 -0.15765682 -0.16620134 -0.35083637 -0.121400066 -0.30727202 0.55835 -0.6408947
0.220027 0.20779905 -0.43759066 -0.6847022 0.39657417 -0.32682678 -0.18419585 -0.05487792
0.16098896 0.10009513 -0.24979961 0.50382024 -0.45099244 0.46141002 -0.29002976 -0.69662213
0.23647146 0.3379459 -0.16257367 0.55768055 -0.14033818 -0.534556 -0.014135054 0.02153965
00000000: 30b3 f93e 257a c03e c63b 27bf 79ca 153e
00000010: 69f2 b9be b951 5abd 0420 103e e5ea dbbe
00000020: 84ef 113f 8ad5 ab3e 5b16 e33c 6c18 23bf
00000030: e80b 8ebe 7a80 7c3e b127 c13c d3f3 d33d
00000040: edac 14bf d11e 1cbf 12e4 d83e a003 86be
00000050: 1f64 9f3d d2ac 02bc eafc ddbd 8e6f 1e3f
00000060: a964 a7be 70fb 963d 86c1 4c3d 7273 c3ba
00000070: bbfe ef3d a205 283f 235e dabe 75dc b4be
00000080: c094 04be 0fbc b93e 7515 c7be 3186 f53e
00000090: 996c 123e 7011 b63e 9534 f9bd a373 773d
000000a0: 487f 463e b8d1 15bd a08e 1c3f f254 9abe
000000b0: ce56 5dbe 8fe2 073e 4f6c bc3d adee 01bf
000000c0: f38c 653e 77cd 16bd 00a9 75be a346 e53e
000000d0: 9a59 12be 61cf 65be d447 033e 025b 8ebd
000000e0: 1756 913e 7896 24bf 2c70 bd3d 2b99 fc3e
000000f0: 2dd7 afbc c04b 0abe 924a a83c 2d02 1e3d
00000100: 5ce7 74be 893c c7bd e9f1 f73e 8bd2 adbe
00000110: 054f 76be 3c32 c93d e815 a7be 4b84 10be
00000120: e194 e23e d72c 99be 9da1 a2bc 972c e33e
00000130: 9ccc 613e 84dd 9dbe bb30 0dbe a628 143f
00000140: 9c2d 453e 23a3 cabe a27d 1c3e ac4f cd3c
00000150: e533 a43d 2754 703e fa01 b9be 218e a6be
00000160: a4eb 1a3f c508 e1be b980 acbd 8c65 a43e
00000170: 31ea b1bd c6bc 38bf 7337 083f c1c8 653c
00000180: 49bf d33e 2589 cebe ace6 d53e b876 20bd
00000190: 80f5 c3be 241f d83c c72c 7fbd 3a7d 91be
000001a0: a81d 2c3e a676 ce3e 6d8b 76be 00ce 1f3f
000001b0: a7a2 c1be 114e d93e 9a39 c5be 94bd 1a3f
000001c0: 8bae ff3d 53ce 203e 5f17 d03e 1658 1a3e
000001d0: 203c 1ebf dab1 893e 0998 683e 016c 613d
000001e0: 3a26 2d3f 2b5b c2bc cc95 133f 9a5c 493e
000001f0: f33d e03e c91c 633b 5fcb 9dbe 4dbc 8abe
00000200: aec4 a2bd 1639 b43e 2c40 5ebe e181 a13e
00000210: 6d4b ddbd 9687 4c3d eeb2 73be b270 04bf
00000220: 65be 5b3e 287b 9dbe afac 003e beaf 463d
00000230: 20a9 04bf 8b63 a2be 4d96 f23e 5d01 a33d
00000240: 673f 313f 7a9a 0abf 7737 5b3e fc84 453e
00000250: 87b5 b03e 62c6 c5bd 4d91 923e 1fc8 513e
00000260: ae80 fabe d7e9 393f d260 103e 40dc 78be
00000270: 635b bf3e 3cb3 b93e fc4f c13d f9b8 25bf
00000280: af1d a1bd ca70 21be af30 2abe d3a0 b3be
00000290: 99a0 f8bd c252 9dbe 07f0 0e3f ad11 24bf
000002a0: c24e 613e 46c9 543e e20b e0be a548 2fbf
000002b0: c50b cb3e d755 a7be d69d 3cbe abc7 60bd
000002c0: 4ada 243e adfe cc3d 78cb 7fbe 5dfa 003f
000002d0: 7be8 e6be ef3d ec3e c87e 94be d455 32bf
000002e0: 9325 723e 3f07 ad3e b679 26be 27c4 0e3f
000002f0: d0b4 0fbe a9d8 08bf b796 67bc ec73 b03c

conv2.bn.weight f4 [128]
1.089853 1.1536574 0.91618687 0.9829134 0.9848791 0.94169784 1.0340296 0.8677708
1.1080812 0.8397135 0.85975975 1.0944233 0.7953739 0.94420296 0.57081056 0.986382
0.86528945 0.7399812 1.0242654 0.7693923 0.8959213 0.8837348 0.68829584 1.0054544
1.0163199 0.96392834 1.0544444 0.95693624 0.83324724 1.0471168 1.072708 1.3626305
1.1105173 0.8013248 0.7086319 1.020917 0.94151765 0.71445984 1.0034081 0.95363456
0.82936823 0.87527496 1.0000825 0.86176914 0.8300261 0.9393134 0.98328656 0.8892009
0.7472306 1.0346476 0.63093483 1.0507548 1.3673142 0.9429001 0.97958755 0.9996458
0.80353874 1.1500229 0.76051897 0.91139984 0.855713 1.0505276 1.226904 0.7986921
1.1705067 0.6917529 1.0694118 1.0019784 1.0454571 0.81401217 0.95249283 0.9548923
0.7057161 0.9088883 1.623283 0.9541164 1.0871466 1.0443238 0.6810855 1.0692269
1.1773831 1.1369834 0.96853685 0.7968822 1.2303511 0.62461925 1.0313708 0.9573037
1.2573085 1.0485564 0.90978044 1.3036443 0.9353831 0.8337997 1.1536242 1.2072216
1.0446298 1.0214545 0.91583735 0.9440255 1.044597 1.1688025 0.8842204 0.78538907
0.9872431 1.1243885 0.5772464 0.8449399 0.73361677 0.8693548 0.9854191 1.2292835
1.1457981 0.90620196 1.1945068 1.0608032 1.2004114 0.96648616 0.93303627 0.85646653
0.9750608 0.94684505 1.4429214 0.90031296 0.85994273 0.9722568 1.0816245 1.1250361
00000000: 4e80 8b3f 0cab 933f 398b 6a3f 36a0 7b3f
00000010: 0921 7c3f 1c13 713f 155b 843f 3a26 5e3f
00000020: 9bd5 8d3f 77f7 563f 3719 5c3f 1016 8c3f
00000030: a09d 4b3f 49b7 713f a420 123f 8883 7c3f
00000040: 9c83 5d3f 686f 3d3f 211b 833f e5f6 443f
00000050: 195b 653f 723c 623f 2834 303f bbb2 803f
00000060: c516 823f 02c4 763f 09f8 863f c6f9 743f
00000070: b14f 553f ec07 863f 7f4e 893f ad6a ae3f
00000080: 6e25 8e3f 9f23 4d3f e668 353f 69ad 823f
00000090: 4d07 713f d7e6 363f ad6f 803f 6521 743f
000000a0: 7a51 543f 0512 603f b402 803f e79c 5c3f
000000b0: 977c 543f d876 703f abb8 7b3f aca2 633f
000000c0: 814a 3f3f 556f 843f f284 213f 227f 863f
000000d0: 2704 af3f e761 713f 40c6 7a3f cae8 7f3f
000000e0: b7b4 4d3f f333 933f 5fb1 423f 8051 693f
000000f0: 0210 5b3f b077 863f 310b 9d3f 1677 4c3f
00000100: 2ad3 953f b816 313f 7ce2 883f d440 803f
00000110: 8ad1 853f 1a63 503f 92d6 733f d273 743f
00000120: cfa9 343f e7ac 683f bdc7 cf3f f940 743f
00000130: 9f27 8b3f 67ac 853f 9f5b 2e3f 6ddc 883f
00000140: 7db4 963f ac88 913f 08f2 773f 7900 4c3f
00000150: 257c 9d3f 0ce7 1f3f f503 843f db11 753f
00000160: 7cef a03f 1937 863f 5fe7 683f d1dd a63f
00000170: 4475 6f3f e673 553f f5a9 933f 3d86 9a3f
00000180: 6eb6 853f 05bf 823f 5174 6a3f a8ab 713f
00000190: 5bb5 853f 529b 953f 455c 623f 420f 493f
000001a0: f7bb 7c3f f6eb 8f3f 6cc6 133f fb4d 583f
000001b0: 4fce 3b3f 098e 5e3f 6d44 7c3f 2959 9d3f
000001c0: 83a9 923f dafc 673f 99e5 983f 66c8 873f
000001d0: 15a7 993f a36b 773f 77db 6e3f 6441 5b3f
000001e0: 969d 793f 7064 723f a6b1 b83f e97a 663f
000001f0: 3525 5c3f d2e5 783f ac72 8a3f 2f01 903f

conv2.bn.bias f4 [128]
-0.13897882 0.2602639 0.033551887 -0.5081505 -0.51940125 -0.37660953 -0.051737998 -0.7084056
-0.8819042 0.12434861 -0.40359324 -0.72101694 -0.05422415 -0.23481803 0.08797649 -0.39369857
-0.49754277 -0.8844951 -0.47716406 -0.6315157 -0.4118648 -0.600227 0.2470663 -0.063282266
0.09137654 0.0029263415 -0.47548148 -0.008259422 -0.8251403 -0.11118091 -0.22646758 -0.09370559
-0.30713332 -0.1597967 0.20429182 -0.82107055 -0.31354135 0.47272712 -0.28124502 -0.4996292
-0.39612207 -0.15751155 -0.4459807 -0.32261875 -0.30903313 -0.13369034 0.28794283 -0.022447767
0.42691523 -0.004336761 -0.50783086 -0.3217567 -0.34468707 -0.5115573 0.105339654 -0.19764076
0.008047226 -0.19240241 -0.51609874 -0.36449176 0.16386452 -0.31434733 -0.23529278 -0.33079633
-0.41216323 -0.73768944 -0.10958525 -0.31995115 -0.5932882 0.58439046 0.019150466 0.067867614
-0.27342108 -0.8419903 -0.35616696 -0.14032967 -0.44198662 -0.13936195 -0.5060054 0.31751484
-0.74021286 -0.12585843 -0.09418302 0.6157389 -0.62740445 -0.79041636 -0.28695253 -0.19874817
-0.3085362 -0.1969163 -0.060569633 0.025504911 -0.31792834 0.052957427 -0.549942 -0.02907524
-0.48265067 -0.11282235 -0.6557431 -0.48287535 -0.0484254 0.057454005 -0.015170166 0.18088119
-0.33546263 -0.020900436 0.48625425 0.088904634 -0.31150407 -0.6139165 -0.09213473 0.01682372
-0.31437275 -0.1870943 -0.20873943 0.1205456 -0.29769608 -0.4133174 -0.2036221 -0.5918366
-0.3352836 -0.6506443 -0.52616984 0.2533043 -0.26121536 0.26981613 -0.52286375 -0.16904868
00000000: 7750 0ebe 4f41 853e b46d 093d 2716 02bf
00000010: 7bf7 04bf f7d2 c0be 39eb 53bd 125a 35bf
00000020: 79c4 61bf 7caa fe3d c6a3 cebe 9194 38bf
00000030: 241a 5ebd 2374 70be 052d b43d dc92 c9be
00000040: edbd febe 456e 62bf d94e f4be 03ab 21bf
00000050: f1df d2be 7aa8 19bf f3fe 7c3e 229a 81bd
00000060: a023 bb3d ddc7 3f3b 4f72 f3be 8752 07bc
00000070: 653c 53bf d1b2 e3bd 1ee7 67be b7e8 bfbd
00000080: 9440 9dbe bfa1 23be e031 513e ae31 52bf
00000090: 7e88 a0be 4a09 f23e 59ff 8fbe 66cf ffbe
000000a0: 83d0 cabe b54a 21be 9557 e4be 492e a5be
000000b0: 9739 9ebe 1fe6 08be 3e6d 933e 61e4 b7bc
000000c0: a294 da3e 631b 8ebb 3401 02bf 4bbd a4be
000000d0: d37a b0be 6bf5 02bf 51bc d73d 5762 4abe
000000e0: 83d8 033c 2305 45be 0c1f 04bf aa9e babe
000000f0: 1acc 273e 22f2 a0be 97f0 70be 235e a9be
00000100: 0f07 d3be 37d9 3cbf 3b6e e0bd a3d0 a3be
00000110: bce1 17bf 9d9a 153f 70e1 9c3c 2dfe 8a3d
00000120: d9fd 8bbe ad8c 57bf 845b b6be 95b2 0fbe
00000130: 124c e2be e6b4 0ebe 9289 01bf 4e91 a23e
00000140: 977e 3dbf 08e1 00be 07e3 c0bd 11a1 1d3f
00000150: 949d 20bf ba58 4abf 71eb 92be a484 4bbe
00000160: 75f8 9dbe 6da4 49be dd17 78bd adef d03c
00000170: 81c7 a2be e3e9 583d 00c9 0cbf 332f eebc
00000180: fd1d f7be 670f e7bd c8de 27bf 703b f7be
00000190: b659 46bd e454 6b3d 4a8c 78bc eb38 393e
000001a0: c2c1 abbe 6437 abbc 51f6 f83e a213 b63d
000001b0: 767d 9fbe a229 1dbf 22b1 bcbd e6d1 893c
000001c0: 77f5 a0be a695 3fbe cabf 55be 9de0 f63d
000001d0: 9f6b 98be 579e d3be 5082 50be 9a82 17bf
000001e0: 4baa abbe a090 26bf 11b3 06bf 1ab1 813e
000001f0: 05be 85be 5725 8a3e 66da 05bf 191b 2dbe

conv2.bn.running_mean f4 [128]
-0.33940357 -0.78993565 -1.2113773 -0.037124183 -1.6778527 0.52914965 -2.532135 0.022691734
-0.7671126 -0.95111245 -0.6005424 -0.24775384 -1.318056 -2.7423575 -1.1392549 -0.65608513
-1.7839584 2.1012435 0.21436986 2.5811222 0.31442907 -0.02959354 -0.010701671 -1.3554912
-0.5803546 -0.05073298 -1.210699 -0.30744466 -0.14880456 -0.36264506 -2.4973426 -1.8040302
-0.24854244 -0.041585945 -0.009323803 -0.521386 -4.7904162 -0.026254393 -0.94503695 -0.08140797
1.1236289 -1.7332253 -0.40445423 0.008698563 -0.095679894 -0.49773315 -0.92105544 0.016374374
0.024126902 -0.35124055 0.9432015 -0.49581328 -3.0422857 0.009837082 -0.43847167 -0.5279976
-0.11306533 -2.8177185 0.023096247 -0.33566406 -0.1504713 0.024704902 -0.52146024 -0.097564265
-2.6707857 3.394071 -0.993054 -0.94141513 -0.62382734 0.005950837 -1.0497535 -0.03544762
-1.0047202 0.11027506 -3.674571 -0.8210509 -3.934189 -0.92602885 2.2670813 -0.17560458
0.0006800225 -2.1214256 -1.9091388 -0.14609204 -0.47119218 2.4333587 -0.21607587 -0.754617
-1.4522895 -0.06403257 -1.0600688 -3.0442958 -2.1394498 -0.4314743 -1.1898305 -0.81561
0.11067874 -0.9324229 -0.14279477 -0.115634345 -1.5414529 -0.911298 -0.14318179 -0.84841555
-2.3744001 -1.410113 -0.048797444 -0.1849976 -1.7563167 1.5673236 -0.33299047 -1.3492521
-3.8522267 -0.09630061 -0.06666646 -0.6956584 -1.7340647 -2.0987475 -0.2221091 -0.19296929
-2.2409613 -0.13136882 -0.767689 -0.28194308 -0.00729687 -0.16304797 -0.014676299 -0.24761127
00000000: 4ec6 adbe 3939 4abf 690e 9bbf 870f 18bd
00000010: e1c3 d6bf 5a76 073f 800e 22c0 04e4 b93c
00000020: 7e61 44bf 1b7c 73bf 26bd 19bf 2fb3 7dbe
00000030: 0fb6 a8bf c982 2fc0 1bd3 91bf 32f5 27bf
00000040: c058 e4bf c67a 0640 c683 5b3e 1b31 2540
00000050: d9fc a03e 276e f2bc 1056 2fbc bc80 adbf
00000060: 1e92 14bf 63cd 4fbd 2ff8 9abf 6369 9dbe
00000070: 3960 18be 9dac b9be 76d4 1fc0 76ea e6bf
00000080: e981 7ebe 0656 2abd ddc2 18bc 8e79 05bf
00000090: 174b 99c0 7413 d7bc f1ed 71bf 39b9 a6bd
000000a0: 12d3 8f3f 54da ddbf a014 cfbe 6b84 0e3c
000000b0: d2f3 c3bd e1d6 febe 4aca 6bbf 8d23 863c
000000c0: c8a5 c53c cdd5 b3be a775 713f 3ddb fdbe
000000d0: cfb4 42c0 b62b 213c 5c7f e0be da2a 07bf
000000e0: cc8e e7bd 8055 34c0 5734 bd3c 29dc abbe
000000f0: 2615 1abe ef61 ca3c 6b7e 05bf c6cf c7bd
00000100: 27ee 2ac0 7638 5940 c938 7ebf 9500 71bf
00000110: 26b3 1fbf 3dff c23b 535e 86bf 8631 11bd
00000120: ac9a 80bf e4d7 e13d 2c2c 6bc0 6430 52bf
00000130: c1c9 7bc0 3a10 6dbf dc17 1140 b0d1 33be
00000140: 8a43 323a 70c5 07c0 a95e f4bf 2799 15be
00000150: 1a40 f1be 26bc 1b40 fe42 5dbe 942e 41bf
00000160: 9fe4 b9bf 8223 83bd 56b0 87bf bed5 42c0
00000170: bfec 08c0 33ea dcbe 5e4c 98bf d1cb 50bf
00000180: 89ab e23d 44b3 6ebf cb38 12be b3d1 ecbd
00000190: 544e c5bf d34a 69bf 3f9e 12be c331 59bf
000001a0: 2cf6 17c0 957e b4bf d4df 47bd 0370 3dbe
000001b0: fcce e0bf 0f9e c83f ba7d aabe 4bb4 acbf
000001c0: e28a 76c0 4139 c5bd 6d88 88bd ab16 32bf
000001d0: d5f5 ddbf e151 06c0 9170 63be be99 45be
000001e0: e96b 0fc0 8c85 06be 4487 44bf d85a 90be
000001f0: 951a efbb 0cf6 26be dc74 70bc cf8d 7dbe
