trained_models/configs.cnn6_small_dropout_2_specAugment_128_2_16_2_mixup_2/ckpt.pth (torch, 791753 bytes, 88 tensors)

bn0.weight f4 [256]
000000 0e 39 06 40 ad df bc 3f 44 63 01 40 39 d1 bc 3f
       2.0972323 1.475576 2.0216837 1.475135
000010 69 d3 ad 3f b9 f4 98 3f a9 5b be 3f 06 64 73 3f
       1.3580142 1.1949683 1.4871722 0.950745
000020 38 60 cf 3f 3f 37 82 3f a2 8c a0 3f 4c 36 a0 3f
       1.6201239 1.017311 1.2542918 1.251657
000030 f8 2d a6 3f 2d 2e 89 3f 56 8b a9 3f 16 ee 76 3f
       1.2982779 1.0717217 1.3245647 0.9645704
000040 d1 11 99 3f b3 41 ab 3f 59 92 8a 3f 79 5c 6e 3f
       1.1958562 1.3379425 1.0825912 0.9310985
000050 73 a0 88 3f 8c e8 9d 3f bc 89 31 3f 8c ed bb 3f
       1.0673965 1.2336593 0.6935079 1.4681869
000060 5c 30 90 3f 4a bb 10 3f 32 ff 96 3f 86 41 80 3f
       1.1264758 0.5653578 1.179663 1.0019996
000070 05 8f 8b 3f a2 7a a9 3f d3 c2 7d 3f 74 0b 8e 3f
       1.0903021 1.324055 0.99125403 1.1097245
000080 b0 a6 8d 3f 2e f0 2f 3f f3 57 7c 3f c6 b2 8f 3f
       1.1066494 0.6872586 0.985717 1.1226432
000090 a3 13 83 3f 71 91 8e 3f 8b ec 82 3f b0 14 90 3f
       1.0240368 1.1138135 1.0228437 1.1256313
0000a0 e7 a1 6c 3f 79 e2 1d 3f f9 8d a4 3f 74 9e 18 3f
       0.92434543 0.61673695 1.2855827 0.5961678
0000b0 7a c8 8e 3f b7 22 7d 3f ef 0e 52 3f 89 0e 5e 3f
       1.115493 0.98881096 0.82054037 0.8674093
0000c0 53 2f 33 3f 74 e8 10 3f e9 7d 87 3f 11 d9 46 3f
       0.69994086 0.56604695 1.05853 0.7767497
0000d0 2d a5 80 3f 27 d0 50 3f 11 08 38 3f ac bb 7f 3f
       1.0050408 0.81567615 0.7188731 0.9989574
0000e0 52 d1 78 3f 51 9a 5a 3f 19 7d 45 3f 4d 4b 6a 3f
       0.971944 0.8539172 0.7714401 0.9152115
0000f0 b4 10 1f 3f 96 35 84 3f 0c 61 4f 3f bd 90 62 3f
       0.6213486 1.0328853 0.81007457 0.88502103
000100 14 7f 50 3f 5f 4e 35 3f b6 63 57 3f e8 58 22 3f
       0.81443906 0.7082271 0.8413652 0.6341691
000110 75 fc 22 3f 64 1e 41 3f 37 9d 4a 3f 90 82 4e 3f
       0.6366647 0.75437 0.7914614 0.8066797
000120 94 e3 25 3f a3 9e 36 3f 3d fd 4b 3f 03 ef 0c 3f
       0.6480038 0.7133581 0.79683286 0.550522
000130 97 8b 41 3f 32 1d 39 3f 0b 33 21 3f dc 15 5d 3f
       0.7560362 0.72310174 0.6296851 0.8636148
000140 97 56 43 3f 4c b0 3f 3f 3d 47 60 3f b6 9f 5d 3f
       0.76304 0.7487838 0.876087 0.86571825
000150 af 83 4b 3f b4 00 5b 3f 4d 6f 35 3f 87 8f 50 3f
       0.7949781 0.8554795 0.70872957 0.81469005
000160 51 a7 33 3f 6f b2 78 3f dc 75 20 3f fe 5a 88 3f
       0.7017718 0.9714727 0.6267984 1.0652769
000170 ca c7 3e 3f 18 fd 8e 3f fb f6 27 3f b8 02 7b 3f
       0.74523604 1.1170988 0.6561124 0.98051023
000180 f9 8f 14 3f fa 2b 39 3f 08 45 46 3f 31 a2 7f 3f
       0.58032185 0.7233273 0.77449083 0.9985686
000190 29 36 8e 3f 25 8b 5f 3f 28 16 3b 3f 04 a7 88 3f
       1.1110278 0.8732169 0.7308068 1.0675969
0001a0 30 a4 5a 3f f7 6e 6a 3f a9 f3 93 3f 9d 4d 4f 3f
       0.8540678 0.9157557 1.1558734 0.80977803
0001b0 cf 32 8a 3f ed da 29 3f 71 cf 5e 3f ee 38 55 3f
       1.0796756 0.6634968 0.8703528 0.8328999
0001c0 f2 a0 6c 3f 39 a0 43 3f 94 8b 81 3f c6 cd 5a 3f
       0.92433083 0.76416355 1.0120721 0.85470235
0001d0 0a 08 70 3f 74 f1 55 3f 34 ef 71 3f 5c 45 71 3f
       0.93762267 0.83571553 0.9450562 0.9424646
0001e0 e2 c0 7e 3f 1c a4 4b 3f 60 72 7e 3f a8 44 4e 3f
       0.99513066 0.79547286 0.9939327 0.8057351
0001f0 46 f5 91 3f de d3 56 3f 88 bf 6e 3f cf ad 5c 3f
       1.1402977 0.83917034 0.93261003 0.8620271
000200 d0 1e 4f 3f 17 a9 5e 3f 12 64 73 3f bd 9e 6e 3f
       0.8090639 0.8697676 0.9507457 0.93210965
000210 95 a0 85 3f b9 54 54 3f 11 74 31 3f ce 1f 62 3f
       1.0439631 0.82941777 0.6931773 0.8832978
000220 74 c9 9e 3f 2d 41 51 3f 38 9e a1 3f 56 47 18 3f
       1.2405229 0.81740075 1.262641 0.5948385
000230 d3 fb 80 3f 06 ac 5b 3f 9c 38 4e 3f 3d d2 74 3f
       1.0076851 0.8580936 0.8055513 0.956333
000240 2c 53 4b 3f 2e 82 70 3f c0 e8 87 3f d2 b4 7f 3f
       0.79423785 0.9394864 1.0617905 0.99885285
000250 ac 3f 83 3f 4b cc 27 3f 3b 63 66 3f 99 30 80 3f
       1.0253806 0.655461 0.89995164 1.0014831
000260 da eb 72 3f 81 5e 6d 3f 3f c4 99 3f d1 b9 30 3f
       0.9489113 0.92722327 1.2013015 0.69033533
000270 d3 69 86 3f 3b b2 52 3f 2c d0 4f 3f 71 8e 8c 3f
       1.0501045 0.8230321 0.8117702 1.098097
000280 c6 01 39 3f a5 d3 93 3f 3b 43 4d 3f b8 01 5b 3f
       0.7226833 1.1548964 0.8018071 0.855495
000290 a1 f5 80 3f fb d1 4d 3f 97 a5 62 3f ac ca 55 3f
       1.007496 0.8039853 0.8853392 0.8351238
0002a0 ec ea 7f 3f e6 c1 3e 3f f6 a1 2f 3f 38 c9 87 3f
       0.9996784 0.74514616 0.6860651 1.0608282
0002b0 19 f1 65 3f 37 d3 57 3f 37 4c 4b 3f c1 fa 72 3f
       0.8982101 0.84306663 0.7941317 0.9491387
0002c0 0e 2c 55 3f 60 ba 46 3f 3d 8d 61 3f ce 48 16 3f
       0.8327035 0.77628136 0.8810614 0.5870484
0002d0 43 7d 42 3f 48 cf 42 3f fb 57 3a 3f 35 cc 61 3f
       0.75972384 0.76097536 0.727905 0.8820222
0002e0 e9 59 6b 3f 67 26 40 3f 9e 43 3a 3f 56 bd 52 3f
       0.91934067 0.750586 0.72759426 0.82320154
0002f0 9b b0 63 3f f6 d4 3a 3f 00 b2 4d 3f c2 85 57 3f
       0.88941354 0.729812 0.8034973 0.84188473
000300 79 27 4d 3f 82 cc 5d 3f 1e de 48 3f a4 5b 48 3f
       0.80138355 0.8664018 0.78463924 0.7826483
000310 fc 05 4a 3f 31 c5 31 3f 2d 5b 3c 3f 2f ad 3f 3f
       0.7891538 0.69441515 0.73576623 0.7487363
000320 a1 0a 43 3f f8 eb 4d 3f cd c6 69 3f 2c 2c 23 3f
       0.76188093 0.80438185 0.9131897 0.63739276
000330 a6 83 42 3f d8 0d 37 3f de 83 61 3f b1 84 32 3f
       0.7598213 0.715055 0.8809184 0.6973372
000340 36 02 56 3f 98 1d 12 3f b8 03 3c 3f f0 51 1c 3f
       0.83597124 0.57076406 0.73443174 0.61062527
000350 54 f9 50 3f f9 87 2b 3f c0 a3 29 3f 3d ac 79 3f
       0.81630445 0.6700435 0.6626549 0.9752844
000360 31 b5 4b 3f 3a ec 2b 3f 6c ca 5d 3f b3 86 22 3f
       0.7957335 0.6715733 0.86636996 0.63486785
000370 cc 39 1b 3f c8 00 53 3f 07 5c 26 3f af 18 50 3f
       0.60635066 0.8242307 0.6498417 0.81287664
000380 51 48 45 3f 01 69 29 3f c2 a7 2e 3f 67 5e 83 3f
       0.7706347 0.6617585 0.6822473 1.0263184
000390 78 89 4a 3f c8 b9 4b 3f dd 40 31 3f ac 06 25 3f
       0.7911601 0.79580355 0.692396 0.64463305
0003a0 c6 35 50 3f 65 c1 40 3f f1 aa 2a 3f 9d a9 68 3f
       0.8133205 0.75295097 0.66667086 0.9088381
0003b0 22 69 47 3f c0 52 6f 3f 77 2e 53 3f da ad 42 3f
       0.77894795 0.9348564 0.82492775 0.76046526
0003c0 51 44 97 3f 12 ee 00 3f 9b d8 69 3f 35 9b 2a 3f
       1.1817724 0.50363266 0.9134614 0.6664308
0003d0 36 cc 4a 3f d1 83 88 3f 60 ea 4b 3f dc 7f 8d 3f
       0.7921785 1.0665227 0.796545 1.1054645
0003e0 a1 f6 9c 3f 2b 26 99 3f c6 15 6c 3f 9e 4a 91 3f
       1.2262765 1.1964773 0.92220724 1.1350896
0003f0 4a fb 7c 3f e9 22 51 3f ee 7f 49 3f 1e c3 85 3f
       0.98820937 0.81693894 0.7871083 1.045017

bn0.bias f4 [256]
000000 e8 da 13 3f 64 75 0d 3e 44 c4 d1 be b6 76 1c 3e
       0.577559 0.13814312 -0.4097005 0.1527966
000010 b6 85 06 3f 05 94 f6 3e ed 06 bb 3f 84 f7 b0 bd
       0.52547777 0.48159805 1.4611489 -0.0864096
000020 d1 92 83 3e 30 84 23 3f 52 99 1d 3f 13 05 2c 3f
       0.2569795 0.6387358 0.61562073 0.6719524
000030 22 f2 ee bd 66 67 c3 3e 2c 21 39 3f 18 00 7a 3e
       -0.11667277 0.38164824 0.7231624 0.24414098
000040 a3 f4 ba be 57 0a b7 3e 7e 0a 06 3f 1b 99 a3 be
       -0.36514768 0.35750076 0.5235976 -0.31952748
000050 e6 81 2f bf 5f 1c a0 3e 61 03 aa 3e ff f9 a7 bd
       -0.68557584 0.31271645 0.33205703 -0.0820198
000060 e3 54 de be e6 e3 16 bf 08 8e 03 bf 90 e7 f0 3d
       -0.43424138 -0.58941495 -0.513886 0.11762917
000070 47 92 e9 3c 56 05 85 be 8c e4 86 bf c9 6a 4d 3d
       0.028512133 -0.25980633 -1.0538497 0.050150666
000080 f0 ca db be ae ba 9f bf 12 da 90 be a0 b3 f2 bd
       -0.42928267 -1.2478845 -0.28291374 -0.11850667
000090 3c 0f 14 bb 54 68 16 be c8 78 36 bf f0 0a 42 3d
       -0.0022592088 -0.14688236 -0.7127805 0.047373712
0000a0 f6 78 02 be 5a 24 b3 be e8 41 fa bd 55 8f 04 3e
       -0.12741455 -0.34988672 -0.12219602 0.12945302
0000b0 c3 ca 59 be 37 72 a9 be 56 58 1e 3e 4d 63 a4 3d
       -0.21268754 -0.33094952 0.15463385 0.080267526
0000c0 fe e1 97 be 46 97 dd be 39 e0 3b 3e 84 9e 3a 3e
       -0.29664606 -0.43279475 0.18347253 0.18224531
0000d0 48 d9 8d 3e 6b c5 08 3e f9 04 54 be be bd ed bd
       0.27704835 0.13356559 -0.20705022 -0.11608456
0000e0 4e 0c dc 3e b5 07 00 3e 23 fd 36 3e 22 fe 9b 3e
       0.42978138 0.1250294 0.17870001 0.30467325
0000f0 d2 5e bc be 6d 83 2e 3d 41 fd 90 3e 71 be 78 3d
       -0.36791092 0.042605806 0.28318217 0.060728494
000100 22 46 d8 3e 6d 86 03 3f 48 55 a8 3e 83 da 78 3d
       0.42241007 0.5137699 0.32877564 0.060755264
000110 c4 a0 0f 3f 4c fa 88 3e f0 0a 54 3e c8 0d 2e 3e
       0.56104684 0.2675346 0.20707297 0.16997445
000120 0e 0c 04 be 4c 2a f0 3e 6c 5e ef 3e 3e 24 b7 3c
       -0.12895223 0.4690727 0.46751726 0.022356149
000130 20 17 95 3e 78 4b 29 3e be 6b 76 be 18 bf 59 3e
       0.29119205 0.16532695 -0.24064538 0.21264303
000140 71 db d4 3e 10 81 08 3e 71 02 80 be a4 f0 aa be
       0.4157367 0.13330483 -0.25001863 -0.3338672
000150 3c 2a 52 3e aa d1 e5 3d 18 17 83 3e b3 f9 d5 3c
       0.20523924 0.11221631 0.25603557 0.026120042
000160 8f ea 2b be 0a 1e 81 3e ea a1 bc 3c 9a b5 34 3b
       -0.16788696 0.2521823 0.023026425 0.0027574063
000170 b9 98 8f bf d4 66 53 be 3f 67 8f 3d 4a 4f 07 bf
       -1.1218482 -0.20644695 0.070021145 -0.5285536
000180 fd 8a 7e bd 0f 6f fa be a9 65 90 be 7c 76 cc 3d
       -0.06214427 -0.48912856 -0.2820256 0.099835366
000190 60 23 5a 3b e9 21 19 bf 98 c9 32 bd ac de e6 3d
       0.0033285245 -0.5981737 -0.043649286 0.1127294
0001a0 68 c4 f8 be 10 6b 0b 3f 27 01 45 3e 03 da 01 bf
       -0.48587346 0.5446024 0.19238721 -0.50723284
0001b0 3b ed b9 3d b5 7c c9 bd cb 2c d8 be fd cd 3e bd
       0.09078451 -0.09838239 -0.42221674 -0.046583164
0001c0 20 4e 9f 3c ca 55 cb be 8e 45 d7 be 48 8f b1 be
       0.019446433 -0.3971389 -0.42045254 -0.34679627
0001d0 97 f2 30 3d a2 3e 82 bd be a4 23 3e 66 97 cd bd
       0.0432001 -0.063596025 0.15980813 -0.100386426
0001e0 2f 40 02 be 36 55 9a 3e 41 9c b1 be ad be d4 3e
       -0.12719797 0.30143136 -0.34689525 0.41551724
0001f0 44 58 b1 be 56 ab 77 bf ed 35 ba bd 1f 7a d4 be
       -0.34637654 -0.9674581 -0.09092317 -0.4149942
000200 8f 62 9e bd 6e f5 ce be 1a cd bc be 81 52 97 3e
       -0.07733642 -0.40421623 -0.3687523 0.29555133
000210 ac c0 95 3d 90 ee 11 bf 7f 12 48 3d 89 3a c5 39
       0.0731214 -0.5700464 0.048845764 0.0003761838
000220 b6 54 db be be bc cb be 1c 12 c5 bd 4d 78 8b be
       -0.42838067 -0.39792436 -0.09622595 -0.2724022
000230 02 f2 65 be bc d6 08 bf f4 5e 82 be c5 4c 1a bf
       -0.224556 -0.5345266 -0.25463068 -0.6027339
000240 91 c6 80 bf 75 9f 5e 3e 75 06 16 be 07 d8 12 be
       -1.0060598 0.21740516 -0.146509 -0.1434022
000250 cc fe 4b 3e 87 34 12 bf 73 b2 74 bf 3e 06 46 3e
       0.19921416 -0.571114 -0.9558479 0.19338319
000260 47 b3 44 bd ef 25 c2 bd 96 f6 7c 3e eb 63 9e be
       -0.048022535 -0.094798915 0.2470344 -0.30935606
000270 1d 9f 7a bd 3a 65 d5 bd 4a a2 b3 be 0c 9b a0 bd
       -0.0611869 -0.10419698 -0.35084754 -0.07842073
000280 60 b1 26 bf fe df 9d 3d b5 e5 20 3e f2 d5 b5 bd
       -0.651144 0.07708739 0.15712626 -0.088786975
000290 e9 db 0f be cc ab 8d be b7 8b 88 3d 96 e5 80 be
       -0.14048733 -0.27670133 0.066672735 -0.2517516
0002a0 39 cb 3a 3d 85 f7 62 be 28 ea ad 3d f5 11 96 be
       0.045603964 -0.22164734 0.084919274 -0.29310575
0002b0 24 99 19 be 64 20 a2 3e ce 5c 3d bf c7 51 d4 be
       -0.14999825 0.31665337 -0.73969734 -0.4146864
0002c0 34 16 65 3e 10 0a 79 3d 74 c1 b0 3e 45 d3 c7 be
       0.22371751 0.060800612 0.34522593 -0.39028373
0002d0 65 8a 9c 3d 7e 50 10 3e c2 1a 89 be 4a 42 5b 3e
       0.07643584 0.14093205 -0.26778227 0.21412006
0002e0 a4 d3 c5 bd e5 2e 1b 3e 16 b6 0e 3e fc bc aa be
       -0.09659508 0.15154608 0.13936648 -0.3334731
0002f0 d8 60 16 bf a0 5e 63 3d dd 77 17 3d 17 35 04 bd
       -0.5874152 0.055510163 0.036979545 -0.032277193
000300 49 6f ac be f2 98 d6 be 68 2e 41 3e 9c d9 13 3c
       -0.33678654 -0.41913563 0.18865359 0.00902405
000310 11 e4 1f be bd dc 39 be 42 39 d0 bd 51 71 03 be
       -0.15614344 -0.18150611 -0.10167171 -0.12836196
000320 de d5 fd be b9 b3 1c be 26 c4 d2 be b7 5f cb bd
       -0.4957723 -0.15302934 -0.41165274 -0.099303655
000330 42 44 e0 bd a1 67 45 be 03 e4 37 be df 0b b2 be
       -0.10950519 -0.19277813 -0.17958073 -0.34774682
000340 3b 13 2e be 3c e8 17 3e 64 9a 1c 3d f0 3c b5 be
       -0.16999523 0.14834684 0.038233176 -0.35398054
000350 ea 0c cc be 1d 40 b8 3a 21 a2 89 bd d3 34 5a be
       -0.39853603 0.0014057193 -0.06720377 -0.21309213
000360 41 59 4a 3e 2e aa 2b bd ac 4b 0a be e9 93 e3 3d
       0.1976061 -0.041910343 -0.13505429 0.11112196
000370 96 d0 9b bd c2 3f 5b be e7 ce 89 bd 03 98 1a be
       -0.07608144 -0.2141104 -0.067289166 -0.1509705
000380 8a e9 9d be 96 3a ef bd ef 44 9b 3d c8 29 2e be
       -0.3084224 -0.11681096 0.075815074 -0.17008126
000390 d8 de 48 bd 69 e8 c6 3e b6 59 66 3e 61 c3 56 3e
       -0.049040645 0.3884919 0.2249516 0.20972969
0003a0 3e 2b 98 3d a1 94 58 be 97 c4 81 3e 93 53 61 bd
       0.07430123 -0.21150447 0.253453 -0.055011343
0003b0 e5 5a d4 3e b5 7c ed bd 3f f6 30 3e cc 85 17 3f
       0.41475597 -0.115960516 0.17281435 0.5918853
0003c0 66 5e e7 bd 08 3d 58 3e 4e de b6 3e 0f a7 fb 3e
       -0.11297302 0.21117032 0.3571648 0.49150893
0003d0 05 2e a8 3e 27 9f fb b8 9e 42 ef bc 03 d0 05 3e
       0.3284761 -0.00011998257 -0.02920657 0.13067631
0003e0 75 0e 57 be 0a f7 88 3e 9e 7d 04 3f 51 7f 0a be
       -0.21001609 0.26750976 0.51754177 -0.1352513
0003f0 c6 f0 da be ef 45 a9 3e 8e 3e 41 bd cf b3 10 bf
       -0.4276182 0.33061168 -0.047178797 -0.56524366

bn0.running_mean f4 [256]
000000 84 4e 42 40 79 ee ab 40 5c 8e e2 40 0a 51 ee 40
       3.0360422 5.3728604 7.079878 7.4473925
000010 27 7c ce 40 00 3a a3 40 d6 02 99 40 69 97 f5 3f
       6.4526553 5.10083 4.781596 1.9186832
000020 73 5d eb 3f 17 73 22 3f 1c a7 48 3f 6c da 78 bf
       1.8387893 0.63456863 0.7837999 -0.97208285
000030 9a c3 85 bf c5 1b 92 bf b4 4f ff bf d0 be 19 c0
       -1.0450318 -1.1414725 -1.9946198 -2.4022713
000040 87 60 5f c0 aa b9 10 c0 31 b1 a0 c0 b3 37 8e c0
       -3.4902666 -2.261332 -5.02163 -4.444299
000050 40 cb a2 c0 84 22 a6 c0 c7 5e c7 c0 ef ce d4 c0
       -5.087311 -5.1917133 -6.2303195 -6.6502604
000060 fd c7 c1 c0 79 eb f0 c0 ef 52 e7 c0 43 cf ff c0
       -6.0556626 -7.528744 -7.2288737 -7.9940505
000070 79 3e df c0 0a c5 0a c1 d5 f8 07 c1 ba 44 06 c1
       -6.976376 -8.673105 -8.49825 -8.391779
000080 3d 68 0f c1 44 93 15 c1 ee 41 23 c1 bc f9 0e c1
       -8.962949 -9.3484535 -10.203596 -8.93597
000090 4a 2f 32 c1 3a f6 27 c1 6b 27 2f c1 d4 a2 2c c1
       -11.136545 -10.497614 -10.947124 -10.789753
0000a0 82 76 3d c1 96 49 42 c1 ca 0f 39 c1 f1 e4 4f c1
       -11.841433 -12.142965 -11.566355 -12.993394
0000b0 76 25 4d c1 b3 00 5b c1 00 1c 44 c1 fc 5e 5f c1
       -12.821646 -13.687671 -12.256836 -13.96069
0000c0 39 f8 59 c1 80 a4 58 c1 ab 25 5b c1 01 5c 60 c1
       -13.623101 -13.540161 -13.696696 -14.022462
0000d0 49 31 6a c1 b7 40 54 c1 4d 85 70 c1 a1 9f 64 c1
       -14.6370325 -13.2657995 -15.032544 -14.288972
0000e0 37 a5 68 c1 14 7c 5e c1 bf 3a 6d c1 0c 32 6e c1
       -14.540336 -13.9052925 -14.826842 -14.887218
0000f0 bd ed 62 c1 fe 25 70 c1 20 ca 6b c1 8b 74 78 c1
       -14.183042 -15.009275 -14.736847 -15.528453
000100 d3 a6 5e c1 bf 0b 7a c1 d1 de 6b c1 12 91 70 c1
       -13.915729 -15.627868 -14.741899 -15.035418
000110 fd 67 75 c1 b1 c0 73 c1 8e 0d 77 c1 1b 8b 71 c1
       -15.337888 -15.234544 -15.440809 -15.096461
000120 39 c0 71 c1 09 b8 74 c1 13 80 7a c1 03 d7 80 c1
       -15.109429 -15.29493 -15.656268 -16.104986
000130 0f 0c 80 c1 59 61 82 c1 de b2 81 c1 d9 ed 81 c1
       -16.005888 -16.297533 -16.212337 -16.241137
000140 4c 0e 82 c1 e7 f1 82 c1 ca b2 84 c1 93 52 86 c1
       -16.25698 -16.368116 -16.5873 -16.79032
000150 7e e1 87 c1 22 14 8a c1 06 6d 8c c1 88 19 8b c1
       -16.985104 -17.25983 -17.553234 -17.387466
000160 d5 13 8e c1 ea a9 90 c1 9c 2f 92 c1 a0 94 93 c1
       -17.759684 -18.082966 -18.273247 -18.44757
000170 2e dd 95 c1 5a 79 96 c1 12 8d 95 c1 fc ac 9b c1
       -18.732998 -18.809254 -18.693882 -19.459465
000180 10 62 9d c1 1c 90 9c c1 b6 5a 9c c1 07 4e a3 c1
       -19.672882 -19.570366 -19.544292 -20.4131
000190 ba f9 a2 c1 cc ec a1 c1 32 b6 a9 c1 e2 20 a5 c1
       -20.371937 -20.240623 -21.213963 -20.641056
0001a0 d1 51 aa c1 47 b5 a9 c1 3a 17 aa c1 61 3d ad c1
       -21.28995 -21.213514 -21.261341 -21.65497
0001b0 60 32 ae c1 e7 1c b0 c1 02 6b b3 c1 1e 6f b1 c1
       -21.774597 -22.014112 -22.42725 -22.179256
0001c0 bd ae b6 c1 e5 d7 b4 c1 fa b7 b5 c1 cc 1f b8 c1
       -22.835321 -22.605417 -22.714832 -23.015526
0001d0 09 e6 b8 c1 42 3d b8 c1 36 61 bc c1 66 d4 bd c1
       -23.112322 -23.029911 -23.547466 -23.72871
0001e0 9e 94 bf c1 92 4f c2 c1 30 4e c5 c1 27 82 c7 c1
       -23.947567 -24.288853 -24.663177 -24.93855
0001f0 30 20 ca c1 8f 9a cc c1 34 39 ce c1 ec 2c cf c1
       -25.265717 -25.575468 -25.777931 -25.896935
000200 e6 2f d1 c1 ae 3f d3 c1 3e 17 d5 c1 33 25 d7 c1
       -26.148388 -26.406094 -26.636349 -26.893164
000210 eb c9 d7 c1 86 d4 db c1 e3 2b dd c1 23 98 dc c1
       -26.973593 -27.478771 -27.64643 -27.574286
000220 c9 61 df c1 c6 76 e0 c1 06 b6 df c1 a0 df e2 c1
       -27.922747 -28.057995 -27.963879 -28.359192
000230 ea 97 e2 c1 0e d9 e3 c1 58 96 e5 c1 a9 ed e3 c1
       -28.324177 -28.480984 -28.69841 -28.491045
000240 52 c8 e5 c1 ae 45 e7 c1 e1 ec e8 c1 0c 06 ea c1
       -28.722813 -28.909023 -29.115664 -29.252953
000250 66 42 eb c1 63 72 ec c1 79 10 ee c1 94 86 f1 c1
       -29.407421 -29.555853 -29.758043 -30.190712
000260 87 92 f3 c1 aa a4 f5 c1 b8 b7 f8 c1 8f 5c fb c1
       -30.446547 -30.705402 -31.089706 -31.420195
000270 ed 4c fe c1 be 61 00 c2 9c 81 02 c2 b1 e8 03 c2
       -31.787561 -32.09545 -32.62657 -32.977238
000280 0d 87 06 c2 a4 c4 08 c2 77 2b 0c c2 f1 35 0e c2
       -33.631886 -34.19203 -35.042446 -35.552677
000290 2e 62 10 c2 f3 4b 13 c2 33 c5 15 c2 a3 8c 18 c2
       -36.09588 -36.82417 -37.442577 -38.13734
0002a0 02 5d 1b c2 56 e3 1d c2 60 3a 20 c2 61 96 22 c2
       -38.840828 -39.472008 -40.057007 -40.646854
0002b0 5a d3 23 c2 99 12 25 c2 01 da 25 c2 0e dc 25 c2
       -40.956398 -41.26816 -41.462894 -41.464897
0002c0 79 1a 28 c2 c9 f8 28 c2 d7 ca 29 c2 2f 89 29 c2
       -42.025852 -42.242954 -42.448086 -42.38397
0002d0 06 f1 28 c2 5b f4 28 c2 6a fe 28 c2 88 d2 28 c2
       -42.235374 -42.23863 -42.24845 -42.205597
0002e0 6f d8 28 c2 9d 61 29 c2 88 c2 29 c2 19 72 2a c2
       -42.21136 -42.345325 -42.439972 -42.611423
0002f0 15 c0 2a c2 b2 46 2b c2 35 a8 2b c2 df fd 2b c2
       -42.68758 -42.81904 -42.914265 -42.99792
000300 2c a6 2b c2 09 f6 2a c2 73 02 2c c2 6e 5b 2c c2
       -42.912277 -42.74027 -43.00239 -43.089287
000310 a6 cb 2c c2 bd c2 2d c2 bd c7 2e c2 e0 a9 2f c2
       -43.198875 -43.440174 -43.695057 -43.915894
000320 a1 21 30 c2 6b fc 30 c2 59 19 31 c2 9f 0a 31 c2
       -44.03284 -44.246502 -44.274754 -44.260372
000330 e8 86 30 c2 fb 42 30 c2 50 e3 2f c2 b0 ab 30 c2
       -44.131744 -44.06541 -43.971985 -44.167664
000340 03 75 32 c2 6c 11 34 c2 02 cd 34 c2 cf 38 35 c2
       -44.61427 -45.017014 -45.200203 -45.305477
000350 ef 02 36 c2 11 dc 36 c2 e5 ef 37 c2 f3 37 39 c2
       -45.502865 -45.71491 -45.984272 -46.304638
000360 55 40 3a c2 19 63 3b c2 a1 99 3c c2 ee 7f 3e c2
       -46.562824 -46.846775 -47.15003 -47.62493
000370 7d 11 40 c2 d0 39 41 c2 e1 4a 42 c2 76 70 43 c2
       -48.01708 -48.306458 -48.573124 -48.859825
000380 b5 01 45 c2 c4 e5 46 c2 0c 7b 48 c2 1c 0b 49 c2
       -49.251667 -49.72438 -50.120163 -50.26085
000390 af 74 4a c2 f4 ce 4b c2 ea 91 4d c2 b4 2f 4f c2
       -50.61395 -50.952103 -51.392494 -51.796585
0003a0 4f 1b 50 c2 97 ba 52 c2 c9 19 54 c2 ea 3b 55 c2
       -52.02667 -52.682217 -53.02518 -53.30851
0003b0 2b d6 56 c2 c5 11 58 c2 87 e7 58 c2 a0 8d 59 c2
       -53.70915 -54.017353 -54.2261 -54.388306
0003c0 46 ff 59 c2 68 6c 5a c2 f5 fe 5a c2 40 3a 5b c2
       -54.49929 -54.605865 -54.74898 -54.806885
0003d0 a3 de 5b c2 b4 da 5c c2 53 d9 5d c2 3d 90 5d c2
       -54.96742 -55.213577 -55.46223 -55.390858
0003e0 2b 9b 5e c2 ae fd 5c c2 f1 fe 62 c2 f0 9b 73 c2
       -55.65153 -55.247734 -56.748966 -60.902283
0003f0 87 16 7f c2 bb e3 88 c2 1e 0f 97 c2 66 2f ab c2
       -63.772 -68.444786 -75.529526 -85.592575

bn0.running_var f4 [256]
000000 51 50 3b 43 0b 3f 23 43 5e b3 27 43 11 c0 c4 42
       187.31374 163.24626 167.70065 98.37513
000010 ee e5 73 42 57 e0 75 42 33 54 8b 42 6e 38 91 42
       60.97454 61.46908 69.66445 72.610214
000020 36 d1 72 42 eb 05 98 42 1f 59 9c 42 e4 df 8e 42
       60.704308 76.01156 78.174065 71.43729
000030 51 bd 8d 42 95 9f a7 42 1e cc a8 42 2e 48 91 42
       70.86976 83.81168 84.39867 72.640976
000040 da a7 a5 42 e1 c7 b0 42 ae cb b1 42 38 bf 98 42
       82.827835 88.39039 88.89781 76.373474
000050 9d 99 b3 42 eb 8b b7 42 80 c0 a2 42 b4 a5 a8 42
       89.800026 91.77328 81.37598 84.32364
000060 3d 16 bc 42 4d 5c bf 42 2b bd a6 42 91 8e c2 42
       94.043434 95.680275 83.36947 97.27845
000070 ac 3c c4 42 aa 65 b1 42 9e 55 aa 42 06 5e c1 42
       98.1185 88.69856 85.16722 96.68364
000080 08 2b c3 42 51 21 a9 42 bb 7c b7 42 77 d1 bf 42
       97.584045 84.56507 91.743614 95.90911
000090 f9 aa c1 42 2c 5a a7 42 90 88 c0 42 75 8b be 42
       96.83393 83.67612 96.26672 95.27238
0000a0 58 f8 a5 42 4e 8f a7 42 61 0d ba 42 59 ea bb 42
       82.98505 83.77989 93.02613 93.95771
0000b0 78 87 a2 42 17 f3 bc 42 bc 81 bd 42 ec a2 ad 42
       81.26459 94.474785 94.75339 86.81821
0000c0 a9 d5 a4 42 1c 29 bd 42 b9 f5 be 42 5a 08 a5 42
       82.417305 94.58029 95.47993 82.51631
0000d0 78 fe af 42 20 de ba 42 81 d7 ba 42 83 ca a0 42
       87.99701 93.43384 93.420906 80.39553
0000e0 64 91 ba 42 da 96 b9 42 9e bc a3 42 cf 88 a3 42
       93.283966 92.79463 81.86839 81.767204
0000f0 ad da b8 42 b7 7f b8 42 eb c0 9f 42 1a 69 ba 42
       92.4271 92.24944 79.87679 93.20528
000100 60 d7 bc 42 9a 59 ba 42 9a 50 a5 42 41 92 aa 42
       94.420654 93.175 82.657425 85.28565
000110 1d 56 bf 42 ab 4f bf 42 77 bc ae 42 c1 54 a8 42
       95.66819 95.6556 87.368095 84.165535
000120 e5 88 a8 42 67 8e ad 42 9f 13 b7 42 e3 82 cb 42
       84.26737 86.77813 91.53832 101.75564
000130 e9 75 ce 42 ac 23 c3 42 fb 9a b4 42 ba 4a ad 42
       103.23029 97.56967 90.3027 86.64595
000140 31 d6 a9 42 b1 cf a8 42 7f bb a8 42 ff dd a8 42
       84.91834 84.40565 84.3662 84.433586
000150 d1 33 a9 42 a4 86 ab 42 f4 85 af 42 a4 4d ae 42
       84.601204 85.76297 87.76163 87.15164
000160 db 4c ad 42 3b 3f aa 42 96 e1 a8 42 8a 1a a8 42
       86.65011 85.1235 84.4406 84.051834
000170 db 96 a7 42 d0 16 a8 42 5e c1 a6 42 69 7f a7 42
       83.79464 84.044556 83.37767 83.74885
000180 a6 67 a6 42 d5 28 a4 42 75 f5 a2 42 73 6b a4 42
       83.20244 82.07975 81.47941 82.20986
000190 93 24 a0 42 57 d5 9e 42 44 2a a3 42 b8 47 9e 42
       80.071434 79.41668 81.58255 79.140076
0001a0 5c 79 9f 42 e3 6c a0 42 8b 4c a1 42 15 77 a0 42
       79.73703 80.21267 80.6495 80.23258
0001b0 e8 d1 9e 42 cd eb 9d 42 2d 62 9d 42 cf de 9a 42
       79.40997 78.96055 78.69175 77.43517
0001c0 00 13 9a 42 71 18 9b 42 05 81 9b 42 35 9f 9b 42
       77.03711 77.54774 77.75199 77.81095
0001d0 13 c0 9c 42 cf 39 9c 42 74 42 9b 42 c0 9b 98 42
       78.375145 78.11291 77.62979 76.3042
0001e0 46 af 97 42 77 1c 97 42 d3 89 96 42 0b 32 97 42
       75.84233 75.555595 75.26919 75.59774
0001f0 59 4d 98 42 6b b3 95 42 5e 58 93 42 df af 91 42
       76.15107 74.850426 73.67259 72.8435
000200 34 7f 90 42 71 d9 8e 42 84 47 8e 42 9e 8d 8f 42
       72.24844 71.42469 71.13968 71.776596
000210 13 6b 90 42 73 49 92 42 b5 d9 92 42 e3 7a 92 42
       72.20913 73.143456 73.42521 73.24001
000220 2e 54 93 42 64 8f 93 42 b0 8c 92 42 48 cc 92 42
       73.66441 73.78006 73.27478 73.39899
000230 8b 36 92 42 2f ca 90 42 89 d9 93 42 aa 0d 8f 42
       73.10653 72.39489 73.92487 71.52669
000240 aa a1 8e 42 de 8b 8e 42 72 cd 8b 42 f6 4b 89 42
       71.31575 71.27318 69.90126 68.64836
000250 27 b5 8a 42 7c 07 8c 42 33 86 8d 42 be fe 92 42
       69.35381 70.01462 70.76211 73.49754
000260 3d 57 94 42 43 11 93 42 c3 b1 93 42 57 eb 93 42
       74.17039 73.533714 73.84719 73.95965
000270 39 32 94 42 d3 8d 94 42 ec a6 95 42 89 ae 94 42
       74.09809 74.277 74.82602 74.34089
000280 54 c9 94 42 c8 6c 94 42 fb 1c 96 42 d8 c2 96 42
       74.39322 74.21246 75.0566 75.380554
000290 f7 22 96 42 e0 76 96 42 bf fb 96 42 01 89 99 42
       75.06829 75.23218 75.49169 76.767586
0002a0 d0 41 99 42 aa e7 98 42 ef 82 98 42 a3 81 99 42
       76.62854 76.45247 76.25573 76.7532
0002b0 cc bb 99 42 ad 36 9a 42 57 16 98 42 0f 38 98 42
       76.86679 77.10679 76.04363 76.10949
0002c0 4f 29 9b 42 c0 8d 9f 42 ea f5 a2 42 5e 7d a2 42
       77.58068 79.776855 81.4803 81.24486
0002d0 21 58 a1 42 ca a8 a2 42 09 27 a4 42 55 55 a4 42
       80.67213 81.329666 82.07624 82.166664
0002e0 b2 d0 a2 42 4e 72 a1 42 df ce a1 42 61 9f a1 42
       81.40761 80.72325 80.904045 80.81129
0002f0 05 11 9f 42 cb bd 9b 42 0c b6 9a 42 14 ad 9a 42
       79.53324 77.87069 77.35556 77.33804
000300 5a 2a 99 42 5d b7 97 42 31 e7 99 42 7a 6a 9a 42
       76.58272 75.85813 76.951546 77.20796
000310 7a 97 99 42 c5 17 99 42 2a 61 97 42 82 8e 99 42
       76.79585 76.546425 75.68977 76.778336
000320 cf 69 9a 42 42 df 9a 42 4b bd 99 42 78 0c 99 42
       77.20666 77.43605 76.86971 76.52435
000330 96 6c 97 42 e6 c1 96 42 92 30 97 42 5e ae 98 42
       75.71208 75.37871 75.594864 76.34056
000340 fc 9e 99 42 c6 7f 98 42 63 1a 99 42 3e 90 98 42
       76.81052 76.24956 76.55154 76.28172
000350 e1 f1 98 42 aa 9a 96 42 8e 52 95 42 85 8d 94 42
       76.47242 75.30208 74.66124 74.276405
000360 42 80 95 42 85 d8 95 42 b1 8f 96 42 3b ae 99 42
       74.7505 74.92289 75.28065 76.840294
000370 32 46 9e 42 84 01 a2 42 d0 34 a1 42 5a 10 9f 42
       79.1371 81.00296 80.60315 79.53194
000380 34 de a0 42 e8 ee a1 42 43 e9 a3 42 f7 50 a2 42
       80.43399 80.96661 81.95559 81.158134
000390 74 b3 a4 42 a9 aa a3 42 8f 99 a2 42 7d c6 a3 42
       82.350494 81.83332 81.29992 81.88767
0003a0 78 9a a3 42 a0 5f a6 42 26 cf a5 42 78 54 a3 42
       81.8017 83.18677 82.90459 81.66498
0003b0 bc 6e a1 42 b7 35 9f 42 90 6c 9a 42 8e 78 98 42
       80.71628 79.60491 77.212036 76.23546
0003c0 58 75 97 42 1d 61 99 42 07 59 9a 42 cf 84 9c 42
       75.72919 76.689674 77.17388 78.25939
0003d0 73 f3 a0 42 6a 36 a2 42 8c 4a 9e 42 91 82 9e 42
       80.47549 81.10628 79.1456 79.25501
0003e0 0b d2 97 42 4d 46 ce 42 64 0d 0c 43 ae 55 bf 42
       75.91024 103.13731 140.0523 95.66734
0003f0 62 88 a6 42 83 59 90 42 c7 bc 71 42 42 6e 80 42
       83.26637 72.17483 60.434353 64.21535

conv1.bn.weight f4 [64]
000000 aa 57 f7 3e 75 1e 76 3f 56 24 05 3f 8f a0 a9 3f
       0.4830907 0.96140224 0.5200857 1.3252124
000010 85 80 f0 3f 19 d7 1f 3f c6 40 a5 3f 30 58 28 3f
       1.8789221 0.6243759 1.2910392 0.65759563
000020 40 84 46 3f 3a 24 fc 3e 9a 46 0f 3f 8d e2 28 3f
       0.7754555 0.4924639 0.55967104 0.6597069
000030 60 a0 6e 3f ae 1d ca 3e df 83 23 3f 52 77 3b 3f
       0.9321346 0.3947577 0.63873094 0.73228943
000040 2b 58 c9 3e ea 96 44 3f c2 86 95 3f b2 0b 72 3f
       0.3932508 0.76792777 1.168175 0.94549096
000050 59 5f 8c 3f a3 5e 69 3f 58 b7 36 3f d1 8b 5e 3f
       1.0966598 0.9116003 0.7137351 0.8693209
000060 7c 51 0e 3f d1 94 25 3f a1 36 04 3f c5 89 59 3f
       0.55593085 0.646802 0.5164586 0.84975845
000070 a5 be ac 3f 1c f2 3d 3f d5 44 d8 3f 4d a0 9f 3f
       1.349568 0.74197555 1.6896006 1.2470795
000080 3b aa 2c 3f 53 5a 60 3f 28 d7 ae 3f c7 4b 46 3f
       0.6744725 0.87637824 1.365941 0.7745938
000090 39 dc fc 3e 92 9a da 3f 09 27 55 3f 73 b3 35 3f
       0.49386767 1.7078421 0.8326269 0.7097694
0000a0 2a 46 8c 3f a6 48 d2 3f 79 a7 c0 3f 86 97 3a 3f
       1.0958912 1.642842 1.5051109 0.72887456
0000b0 61 2c 5d 3f 80 8f 08 3f 15 e1 f9 3e e3 c9 61 3f
       0.8639584 0.53343964 0.48804536 0.8819868
0000c0 00 6c 67 3f cf 4a a7 3f 61 00 14 3f 09 04 0b 3f
       0.9039917 1.3069705 0.5781308 0.5430303
0000d0 98 a9 cd 3f fd bc 61 3f f9 a9 5a 3f 56 78 90 3e
       1.6067381 0.88179 0.8541561 0.2821681
0000e0 b9 b7 07 3f fd ef ae 3f 1e 25 22 3f f0 a9 8d 3f
       0.53014714 1.3666989 0.63337886 1.1067486
0000f0 bc ae 80 3f fe b4 41 3f 4d 78 84 3f 66 09 a2 3f
       1.0053325 0.756668 1.0349213 1.2659118

conv1.bn.bias f4 [64]
000000 fa 0e 17 bf 1b 2c 3f 3e e7 ba de be 30 bd 48 3e
       -0.5900723 0.18669169 -0.4350197 0.1960342
000010 1c ed 13 bf 09 f9 15 3f 7a 10 84 3e 9e cf 10 be
       -0.57783675 0.5858312 0.2579382 -0.141417
000020 fa 4c e8 bd 9f 0a 54 3e fb 02 4f 3e 37 b6 86 bf
       -0.11342807 0.20707177 0.2021598 -1.0524358
000030 c5 34 c8 be 5a c5 0f 3d 3c 09 05 bf a7 8e a5 3e
       -0.3910276 0.03510032 -0.51967216 0.32335398
000040 43 d3 20 be ad 29 60 3c c6 e6 13 3f 6e 55 2b 3e
       -0.1570559 0.013681811 0.5777401 0.16731808
000050 25 aa 7d 3e 0f 35 43 bf c9 89 d8 be f2 69 03 3e
       0.24771936 -0.76252836 -0.42292622 0.12833384
000060 cc 0d 13 bf a5 f6 12 bf d0 70 19 bd fd d6 a7 3e
       -0.5744293 -0.574076 -0.037461102 0.3278121
000070 9c a5 1c bf a3 fb 24 bf f1 ea a1 be 86 c4 27 3f
       -0.611902 -0.6444647 -0.3162456 0.65534246
000080 7f 68 0f 3e ec 89 01 bf 04 f8 ff be 69 9b c5 3e
       0.14004706 -0.5060108 -0.49993908 0.3859513
000090 90 43 1e bf 2d 45 c6 3e 3c 53 04 bc f3 db 56 be
       -0.6182184 0.38724652 -0.008076485 -0.20982341
0000a0 bc 23 d6 ba 77 cc 61 3f c8 eb 77 3a 86 ff 8e be
       -0.0016337554 0.88202614 0.00094574364 -0.27929324
0000b0 4a 40 b1 3e da 59 26 bf a8 7d 02 bf 60 48 2f bf
       0.3461936 -0.6498085 -0.50972986 -0.6846981
0000c0 7d ff 62 be 51 6f 39 3f 6e 46 e3 3e 4d 4f c2 be
       -0.22167774 0.7243548 0.4438967 -0.37951127
0000d0 ca d7 29 3f e7 a9 68 be 3c 98 53 bc ae 8f 88 be
       0.6634489 -0.22721063 -0.0129147135 -0.2667212
0000e0 80 1e 43 be bf 41 b6 3e 47 f3 5d be 22 61 80 bc
       -0.19054604 0.35597035 -0.21674834 -0.015671317
0000f0 1b 04 10 bf dd ef 05 bf 62 8c 51 3f 40 4e 48 3f
       -0.56256264 -0.5231913 0.8185483 0.782444

conv1.bn.running_mean f4 [64]
000000 cd d2 f4 3b 59 71 b6 3b 43 3a 39 38 1e 83 4e b9
       0.0074714185 0.0055677113 4.4161698e-05 -0.00019694536
000010 ec bf c0 39 f3 7f ce 39 be b0 41 3a 60 74 28 3a
       0.00036764087 0.0003938671 0.00073887024 0.00064260326
000020 b0 8d 17 bb e7 25 85 3b aa 72 98 bc fb ef 0a bc
       -0.0023125224 0.004063356 -0.018609364 -0.008480067
000030 a7 e7 e0 b9 1f 7a 18 3b e6 b5 4c bb 57 6b 11 bb
       -0.00042897204 0.002326615 -0.003123635 -0.0022189224
000040 f7 08 33 bc bf ef 8c b9 e1 6b 98 3a ff ce fc b9
       -0.01092743 -0.00026881506 0.001162883 -0.0004821941
000050 0c c8 31 39 ac 8e cb bb 42 89 57 bb 95 c6 ba 39
       0.00016954559 -0.006212076 -0.0032888209 0.0003562464
000060 a2 d3 66 39 75 b5 31 bc bf 5b 16 3c 09 20 46 ba
       0.00022013349 -0.010846485 0.009177147 -0.0007557874
000070 bc 62 81 3a c4 30 68 bb 6c f3 44 3b 00 61 2c 3b
       0.0009871344 -0.0035429457 0.0030052317 0.0026302934
000080 04 51 28 3b 78 2d 55 bb 76 cc 06 bb c1 41 05 bb
       0.0025683055 -0.0032528322 -0.0020568646 -0.0020333382
000090 ed 17 c5 3b 85 4f 0f ba 15 e9 ce ba 47 e8 20 3c
       0.006014815 -0.00054668664 -0.0015786017 0.009821004
0000a0 0f 3c 27 39 c1 7d c8 b8 0d 35 75 3a f8 dc 30 b9
       0.00015948735 -9.560167e-05 0.00093539135 -0.00016866985
0000b0 82 4c 5b b8 98 86 38 3b 04 b7 b0 bb 9e 23 c8 3a
       -5.2284922e-05 0.0028156396 -0.005392911 0.0015269404
0000c0 62 21 97 b9 eb 55 45 38 dc 49 e8 b9 db f1 54 bc
       -0.00028825836 4.7048477e-05 -0.00044305518 -0.012997116
0000d0 64 55 40 3a f4 d1 9f bb 7e 8a 1e bb c1 93 80 3b
       0.0007336943 -0.0048773233 -0.0024191434 0.0039238636
0000e0 9a 29 13 bc 0f 75 69 ba f0 6f 60 bc bf 02 4e ba
       -0.008982087 -0.0008905688 -0.013698563 -0.00078586856
0000f0 7b f5 2a bb 41 0e 67 3c d1 0f 88 bb 91 61 82 3a
       -0.002608626 0.0141025195 -0.004152276 0.000994729

conv1.bn.running_var f4 [64]
000000 f9 e1 f2 3c 0e 0c 5e 3e f5 79 55 3b 3a ff 8e 3c
       0.029648768 0.21684286 0.0032573913 0.017455686
000010 c6 05 ed 3c 4b 12 63 3c a9 8e 4c 3e dd 45 b3 3c
       0.028933417 0.013859342 0.19976296 0.0218839
000020 f2 4a 3c 3d fc 8d 29 3c 07 91 20 3e a2 dd 35 3d
       0.04596991 0.010348793 0.15680324 0.04440082
000030 a9 9e bb 3c f7 4c 9e 3b 7d 49 dd 3c b4 3a f2 3c
       0.022902803 0.0048309523 0.027012581 0.029569007
000040 f9 7c 84 3d 5c 41 95 3b 35 e4 b1 3d e3 3b 0d 3d
       0.06469149 0.0045549106 0.08686105 0.03448094
000050 e7 06 da 3b b0 c7 e7 3d 05 b7 da 3c d4 48 30 3d
       0.006653655 0.11317384 0.026698599 0.043038204
000060 5d ae 8f 3c 6c 8b 0a 3e 12 4a 2f 3d cf 82 eb 3c
       0.017539198 0.13529748 0.04279525 0.028748898
000070 07 6a 85 3d 75 71 8b 3d 06 81 99 3e 0f f6 15 3e
       0.06514364 0.068087496 0.2998125 0.14644645
000080 88 45 45 3d b8 41 96 3d 38 b9 cd 3d c3 96 8f 3c
       0.048162013 0.073367536 0.10045093 0.017527943
000090 73 b8 9e 3c 11 88 78 3e d2 56 8b 3c 6d 52 12 3e
       0.019375062 0.24270655 0.017009173 0.14289255
0000a0 56 99 b0 3c 17 36 64 3e ac 71 39 3e 8a 49 26 3d
       0.021557491 0.22286259 0.18109769 0.040597476
0000b0 77 38 00 3b 7c d8 1e 3c 0a 47 df 3c 68 57 b3 3c
       0.0019564906 0.009695169 0.027255554 0.021892264
0000c0 24 e1 eb 3d 52 a2 79 3d f1 f7 48 3b 92 12 bb 3d
       0.115175515 0.060945816 0.0030665363 0.091344014
0000d0 3d 8c c2 3d 06 79 e6 3d ed d6 ee 3c 9c 7c 29 3c
       0.094994046 0.11253552 0.029155219 0.010344651
0000e0 8f 5a 52 3d e9 bb 07 3e aa 78 1f 3e a2 02 e9 3b
       0.051355895 0.13255276 0.15573373 0.0071109096
0000f0 03 34 9d 3c ef 29 41 3e c0 8c 00 3e 8b 26 68 3d
       0.01918984 0.18863653 0.12553692 0.056677382

conv1.ch_conv1.weight f4 [64, 1, 1, 1]
000000 1b 12 45 be c5 ca 79 bf e2 25 0e 3e 3f bf a6 3e
       -0.19245188 -0.97575027 0.13881639 0.32567784
000010 66 39 ef 3e 2e 97 b1 3e 34 2f 8a bf b7 ac c9 3e
       0.4672348 0.34685653 -1.0795655 0.39389583
000020 42 cc 08 bf 0a 48 20 3e 82 00 c8 3e 79 08 75 be
       -0.5343667 0.1565248 0.39062887 -0.23929013
000030 7b b1 b9 3e 9e e5 30 3e 00 a3 8c 3e eb ee ca be
       0.3626822 0.17275092 0.2746811 -0.39635405
000040 de ed a8 be 22 30 94 3e 1d 4b 70 bf bc 18 0a bf
       -0.32993978 0.28942972 -0.93864614 -0.5394399
000050 00 0e 94 be ec 5d 6c 3f 44 9a fc 3e 19 20 0a bf
       -0.2891693 0.92330813 0.49336445 -0.5395523
000060 d3 0e c4 3e de 71 0f bf 6e f3 86 be 56 9d 16 bf
       0.3829256 -0.5603312 -0.26357597 -0.58833826
000070 78 87 65 bf 71 4e 2c 3f 7c 66 95 3f 07 80 85 3f
       -0.89659834 0.6730719 1.1671901 1.0429696
000080 5e 37 45 3f 8f 4c 11 bf 48 01 81 3f 81 d4 a5 3e
       0.7703761 -0.56757444 1.0078516 0.3238869
000090 b0 86 2f be 85 17 a4 3f cc e8 9a be a3 b9 26 3f
       -0.17141223 1.2819678 -0.30255735 0.6512701
0000a0 0c 5f bf be 01 bb 81 3f 42 a5 8f bf 0c 07 02 bf
       -0.37377203 1.0135194 -1.1222308 -0.50792
0000b0 87 e0 21 be 8d 5a 5c 3e 36 4b 3b be 7c 4a 9b be
       -0.15808307 0.21518917 -0.1829041 -0.30330265
0000c0 2e f1 7b bf f5 17 09 bf 64 b7 31 be 9c 3f d3 3e
       -0.98414886 -0.5355218 -0.17355114 0.41259468
0000d0 d2 78 87 3f a1 98 25 3f 7d 49 fb 3e cd b1 20 3e
       1.0583746 0.6468602 0.49079505 0.15692826
0000e0 c6 fb 42 be 0b 7f 95 bf dc da 27 bf 2a cc 5d 3e
       -0.19041356 -1.1679395 -0.6556833 0.21659914
0000f0 c6 f0 b4 3e a0 10 3a 3f b6 c0 57 bf 72 ce 38 bf
       0.35339946 0.7268162 -0.8427843 -0.7219001

conv1.sp_conv1.weight f4 [64, 1, 3, 1]
000000 45 ea 82 3e 4b 94 40 3c 8e df 57 bd c8 33 a8 3e
       0.25569358 0.011754106 -0.052703433 0.32852006
000010 d3 7c dd bd 23 7c 73 3e ad a8 0e 3f 2b 0b a7 bc
       -0.10814824 0.23777823 0.5572613 -0.020391067
000020 7c 75 d7 3e b2 7e 10 3f f0 13 8e bd d0 b8 66 3c
       0.4208182 0.5644332 -0.069373965 0.014082149
000030 4a b3 e6 bc 18 85 b6 3e 50 d8 35 bf 16 16 99 3e
       -0.028161664 0.35648417 -0.7103319 0.29899663
000040 f0 e0 fd 3d 61 be c0 be f2 61 03 3f 7a 96 03 bf
       0.12396419 -0.37645248 0.5132133 -0.51401484
000050 5d cb b4 3e df 81 8f 3e d2 9b 9e be 5e b7 23 3f
       0.35311404 0.2802877 -0.30978256 0.6395167
000060 4c 5d a2 be db 54 9c 3e 23 2e 13 3e 17 2a 0e bf
       -0.31711805 0.3053349 0.14373069 -0.55532974
000070 a9 3c 2d 3f d2 1a 26 bf 8f 48 a7 3e 92 80 02 3c
       0.67670685 -0.64884675 0.32672545 0.007965224
000080 02 c5 37 3d 4f 45 77 bf 61 9c c0 bc 3c 4e 1a 3e
       0.044865616 -0.9659013 -0.023512067 0.15068907
000090 a4 3e 15 be 6a 73 1c 3e ae 1c 57 3f db 0b b6 3e
       -0.14574677 0.15278402 0.84028137 0.3555592
0000a0 1c 12 63 3e a9 ab 36 bf 50 f4 de bd 29 47 0e 3f
       0.22174877 -0.7135568 -0.10886443 0.5557733
0000b0 35 d4 f1 3d e4 3b 40 be ba 44 9e be 6b ea b9 be
       0.118080534 -0.18772846 -0.3091181 -0.3631166
0000c0 98 38 bc be 40 35 a7 be e4 30 78 be 18 60 ff 3e
       -0.36761928 -0.32657814 -0.242374 0.49878
0000d0 f6 43 2b bf b0 23 64 3c a4 9c 18 bf ad b9 98 3e
       -0.66900575 0.013924524 -0.59614015 0.2982916
0000e0 44 51 10 3f c2 64 cd 3e 93 e1 dc 3e 50 72 28 be
       0.56374 0.40115935 0.4314085 -0.16449857
0000f0 4d 4b 23 3f c1 0f a1 bd c2 ff f0 bd 51 ab de be
       0.63786775 -0.07864333 -0.11767532 -0.4349008
000100 63 09 00 3f 63 b1 d5 3e 09 84 59 be 8e d1 52 3d
       0.50014323 0.41736898 -0.21241774 0.05146938
000110 b9 cd 2d 3f 9d 76 be be 1d cf 05 bf 89 dc 90 3e
       0.6789203 -0.3719987 -0.52269155 0.28293255
000120 ee 88 91 3e 00 42 a8 be 44 5d 7a 3e 72 ba e4 be
       0.28424782 -0.32862854 0.2444964 -0.44673496
000130 22 40 d7 3e bf 23 3c bf 5e ff 08 3d e4 20 22 3f
       0.42041117 -0.73492044 0.033446662 0.6333144
000140 16 31 2f 3e 6d 9e f9 3e 79 db 10 bf d5 28 83 3e
       0.17108569 0.48753682 -0.5658489 0.2561709
000150 f5 4b 80 3d fa bf e1 3e d2 09 9f 3d d0 9e 42 3f
       0.06264488 0.4409178 0.07765545 0.7602358
000160 20 11 fa 3c 3f 56 95 bc 44 a2 76 bd ea e9 ab 3e
       0.030525744 -0.018229602 -0.060213342 0.335769
000170 a7 e8 4b 3d 5c 64 4e be 64 c3 eb be 4d e1 f8 3c
       0.04978242 -0.20155472 -0.4604751 0.03038087
000180 35 d6 fa 3e c7 6c c2 3e 14 1d 5f be f5 d0 e4 3d
       0.48991552 0.37973616 -0.21788436 0.11172668
000190 56 69 ef 3d e6 de 5c 3e 15 6f 97 be 0a e3 15 be
       0.11690013 0.21569404 -0.29576936 -0.1463739
0001a0 3a d5 03 bf e5 92 aa 3e 7b 58 18 bf 70 48 17 3f
       -0.5149723 0.33315197 -0.5951001 0.59094906
0001b0 e8 f8 4f 3b ea 0b 09 3f 3c 0b 25 3f c1 5c 41 3f
       0.0031734053 0.53533804 0.6447027 0.75532156
0001c0 c1 0f c4 be cd f3 c9 3d a0 58 1d be 12 fe f0 be
       -0.3829327 0.098609544 -0.15365839 -0.4706884
0001d0 50 e4 52 3f 50 c4 ce be df 4e e0 be a8 d2 07 3e
       0.8237963 -0.4038415 -0.43810174 0.13263953
0001e0 44 26 af be ba fa 71 3e 45 66 d2 be 64 c9 ef 3d
       -0.34208882 0.23630801 -0.4109365 0.11708334
0001f0 95 a5 40 be c8 86 c1 be b6 bc ee be da c3 e9 3e
       -0.18813165 -0.37798142 -0.4662835 0.45657235
000200 69 38 03 bf d2 c1 c5 be 15 ef 81 3e 89 dc 5b be
       -0.5125795 -0.38624436 0.25377718 -0.21470846
000210 1c 4f 1e 3f 3c b9 aa be e9 d4 39 bd e8 14 6f 3e
       0.6183946 -0.33344448 -0.045369063 0.23347819
000220 c5 a8 17 3e 53 7d ca 3d 51 62 55 bd a3 c9 21 bf
       0.14810474 0.09887185 -0.052095715 -0.631983
000230 23 64 6f be 3d c9 8c 3d 92 ce 12 3e 16 20 f0 3d
       -0.23378043 0.06874321 0.14336613 0.1172487
000240 8c 3c 3b bf ff 53 e4 3e e9 ff c2 3d 96 cc ab be
       -0.7313926 0.44595334 0.09521467 -0.33554524
000250 74 0d 13 3e c5 51 45 bf b3 f9 2c 3f ea 4d a1 be
       0.143606 -0.77077895 0.6756851 -0.31504756
000260 3f 51 4f be e9 5e 67 3d 0d 47 e6 bd 01 7b b6 3e
       -0.20245837 0.056486998 -0.112440206 0.3564072
000270 ef a0 0a bf 9b fe dd be 75 09 16 3f 0d f3 ad 3e
       -0.54151815 -0.4335831 0.5860818 0.33974496
000280 30 79 5a be 58 c9 88 3e cf 94 34 3f dc 7a 0c be
       -0.21335292 0.26716113 0.70539564 -0.13718742
000290 98 ed bf be b5 bf 86 3e f4 d2 38 bd 93 33 49 be
       -0.37485957 0.26318136 -0.045123056 -0.1964858
0002a0 06 8b 84 be 10 da 2e bf ee 49 2a bf 7a d3 27 bf
       -0.25887316 -0.68301487 -0.6651906 -0.6555706
0002b0 ce bb 00 3f 4d 3b 01 3f 5a 71 cf be 72 a9 20 3e
       0.5028657 0.5048111 -0.40516168 0.15689638
0002c0 76 02 4a be e9 22 90 be 98 79 f8 be 34 93 03 3f
       -0.19727501 -0.28151634 -0.4853027 0.5139649
0002d0 07 62 cc be 5a 6c 14 3e 4d 08 b2 be 53 54 f1 bc
       -0.3991854 0.14494458 -0.34771958 -0.029459154
0002e0 f7 87 99 bb a8 38 cc 3d 1f ef 25 be 63 63 b9 be
       -0.0046853977 0.09971744 -0.16204499 -0.3620864
0002f0 73 55 c0 3e 5b 16 1f bd 87 8c 9e 3e c0 10 36 bf
       0.37565193 -0.03883968 0.3096659 -0.7111931

conv1.sp_conv2.weight f4 [64, 1, 1, 3]
000000 8a f0 cf bc 29 2d 85 be 98 03 94 3f 37 09 a2 3e
       -0.025383253 -0.26011017 1.1563597 0.31647655
000010 0b 71 3e 3e f0 4d 39 bf c4 0b d4 be 24 82 b2 be
       0.1859781 -0.7238455 -0.41415226 -0.34864914
000020 8f 04 52 be fd 61 1e be 10 9c 67 3e 67 d9 08 bf
       -0.20509551 -0.15467067 0.22618127 -0.5345673
000030 01 43 a9 bd 8b d1 00 3f ef 69 91 bd b7 44 00 3f
       -0.08264733 0.5031974 -0.07100283 0.5010485
000040 b2 5b f1 be 20 c0 a9 bd db 91 9d be 6a 26 c6 be
       -0.4714027 -0.08288598 -0.3077534 -0.38701183
000050 79 40 aa 3e 46 17 2c be a6 0f 07 bf 4c 5c 12 3d
       0.33252314 -0.16805753 -0.5275825 0.035732552
000060 12 27 2b bf 02 a6 04 3e 22 13 6b 3e d3 d5 2c be
       -0.6685649 0.12953952 0.22956517 -0.16878442
000070 f4 1e 43 3e ec 3e 8b be d3 ee a8 3e a4 f8 90 3e
       0.19054776 -0.27196443 0.32994708 0.28314698
000080 66 4e d8 3e a0 a3 82 be 93 2e 2a be c6 03 34 3e
       0.42247313 -0.2551546 -0.16619329 0.17579564
000090 c8 f1 30 be 49 01 6c be 04 0c c4 be 25 66 cf bd
       -0.17279732 -0.23047365 -0.38290417 -0.101269044
0000a0 e3 1a 71 bd f4 69 e5 bd eb 0f 9a be 3d 4f 0d 3f
       -0.05886353 -0.112018496 -0.3009027 0.55199033
0000b0 c1 70 ec be 71 f6 2a 3f 35 32 11 3e 28 49 a9 bd
       -0.46179774 0.6678229 0.14179309 -0.082659066
0000c0 10 99 ab be 29 ae e6 3d d1 95 0e 3e d3 eb 3a be
       -0.33515215 0.11263687 0.13924338 -0.18254022
0000d0 da 57 c1 3e b8 0b 8c bc 13 38 0f 3e 9f 3b ec be
       0.37762338 -0.017095432 0.13986234 -0.46139237
0000e0 9a dd c9 3d 86 ae eb be fa d9 ac bd 2e e7 27 be
       0.0985672 -0.46031588 -0.08440013 -0.16396782
0000f0 ca 33 51 3d 43 40 e4 be dd 68 c7 bc 21 e9 4a bd
       0.05107478 -0.44580278 -0.024341995 -0.049538735
000100 19 bd d2 3c 0c 2f 77 be 1d bd d5 bd 47 cb a3 bd
       0.025724934 -0.2413904 -0.10436461 -0.079977565
000110 8f 15 fe bd 9f 62 20 3f 27 70 af 3e b5 01 92 be
       -0.12406456 0.62650484 0.34265253 -0.28516927
000120 c5 d4 f6 be 8b ad db bd d5 54 a9 3e f0 d6 9e 3e
       -0.48209205 -0.1072646 0.33072534 0.3102336
000130 2a d5 d6 be 5e 22 8f 3e c0 04 8e be 36 c3 58 be
       -0.41959506 0.27955908 -0.27738 -0.21168217
000140 5a 9c 23 3f 4c 84 d1 bd 60 76 c6 3d 6d 40 4b be
       0.6391045 -0.10230312 0.09690547 -0.19848795
000150 cb 47 e6 be b2 44 a7 bd 32 c5 14 bd f1 35 8a bd
       -0.4497665 -0.081673995 -0.036320873 -0.0674857
000160 63 09 4b be 04 b9 a8 be 42 db a3 be 5e ab 07 3f
       -0.198278 -0.32953656 -0.32003218 0.5299586
000170 9c 56 17 bf 20 84 1f 3f 52 e9 b7 3e eb e8 bd be
       -0.5911653 0.6231098 0.35920197 -0.37091765
000180 fe 08 6e bd 50 c3 9d be 49 5f bb be f5 45 5b bf
       -0.058114044 -0.30813074 -0.36596134 -0.8565362
000190 1c 9e 4e bd bb 6a 71 3e 23 9e cf 3d e5 49 30 3f
       -0.050443754 0.2357587 0.10137584 0.68862754
0001a0 69 3e 59 3e 40 06 52 3e 0c 6c d7 be 64 dd b4 3d
       0.21215214 0.20510197 -0.4207462 0.088312894
0001b0 13 bd b4 3e 13 7b d2 be eb 3a 42 bd 26 c4 03 3d
       0.35300502 -0.41109523 -0.04741947 0.032169484
0001c0 9c d8 03 bf fc 37 eb 3c a2 ed ce 3d 7e 0d e1 be
       -0.51502395 0.028713219 0.101039186 -0.43955606
0001d0 49 b8 b7 ba 1d a0 32 3e ae 43 b2 be 27 c5 d4 3e
       -0.0014016713 0.17443891 -0.3481726 0.41556665
0001e0 56 25 dc 3e 26 c9 56 be 9d 66 9c 3e cd 37 a2 3e
       0.42997235 -0.2097517 0.30547038 0.31683198
0001f0 54 72 e7 be 72 39 10 3f 64 7b ba 3d 14 15 e7 3e
       -0.45204413 0.56337655 0.09105566 0.4513327
000200 82 08 20 3a 16 56 0d 3f 28 4a c7 be a1 3f 3f 3e
       0.00061047834 0.5520948 -0.38923764 0.18676616
000210 ec f0 5b 3d 9d 71 2f be 2f 6d f5 bd ff cb a9 be
       0.053696558 -0.17133184 -0.11983716 -0.3316345
000220 ae dd ef 3d 69 b9 21 bf e9 38 9e 3e 8c 39 20 bf
       0.11712204 -0.6317354 0.30902794 -0.6258781
000230 9d ca b0 3e ba 32 46 bf 63 b2 ee 3e a0 59 af 3d
       0.34529582 -0.7742115 0.46620473 0.085620165
000240 91 00 8c 3e 94 24 81 be c3 66 26 3e 8e c3 ec 3e
       0.27344182 -0.2522322 0.16250138 0.46242946
000250 35 31 c8 3e 69 8f ef 3d 95 97 53 be b8 10 42 3e
       0.39100042 0.11697275 -0.20663293 0.1895169
000260 47 ba 5b be 02 44 a3 be eb 8e a5 3d 68 ca 50 3f
       -0.21457778 -0.31887823 0.080839 0.8155885
000270 98 d3 1c bd cc a0 a8 3e 6b f1 9b 3d fd ca 0b bf
       -0.03828773 0.32935178 0.07614406 -0.5460661
000280 d7 6c ed be aa 03 45 3f 7d f9 95 be 91 52 fa 3d
       -0.463721 0.76958716 -0.29291907 0.122227795
000290 88 cc ce 3d e1 da d8 3e d4 1a f3 be 6c d7 27 bf
       0.10097605 0.4235449 -0.47481406 -0.6556308
0002a0 51 12 5c 3e 47 c8 52 be 9a 9b 37 3e 08 99 4d 3d
       0.21491362 -0.20584212 0.17930451 0.05019477
0002b0 fc 7a 8c be 7b cb 0a be 70 88 2d bf 4c 6d 12 3e
       -0.2743758 -0.13554184 -0.6778631 0.14299506
0002c0 14 d5 98 3e 27 4a b9 be aa d3 08 3e 84 d7 0a 3f
       0.29850066 -0.36189386 0.13361993 0.542351
0002d0 63 0e 3f be ee 6b 02 3f 81 08 e9 3e 69 98 5f bf
       -0.18657832 0.5094594 0.455143 -0.87341934
0002e0 2c 50 0c 3d cc c4 10 3e 36 32 0b 3f 85 c2 cf be
       0.034256145 0.14137572 0.5437349 -0.40578094
0002f0 51 ca c8 bd 3f b9 e2 3d 9d d1 33 3e f4 43 38 3e
       -0.09804214 0.11070489 0.1756043 0.17994672

conv2.bn.weight f4 [128]
000000 6d 26 bb 3f 5b ce 8a 3f 51 4c 80 3f c1 29 75 3f
       1.4621102 1.0844225 1.002329 0.95766836
000010 48 d5 76 3f 81 46 74 3f 96 05 85 3f 9b 8a 81 3f
       0.9641919 0.9542008 1.039233 1.0120424
000020 d4 04 8d 3f a1 d6 7f 3f 39 1f 8a 3f 9f f2 65 3f
       1.1017098 0.9993687 1.0790778 0.89823335
000030 af e6 87 3f 09 66 3c 3f 22 d6 8b 3f 15 de 62 3f
       1.0617274 0.73593193 1.0924723 0.8862012
000040 2a 53 86 3f 8a 2f 50 3f bc ab 80 3f 64 bd 42 3f
       1.049413 0.8132254 1.0052409 0.7607024
000050 0a 9c 80 3f fb 7b 90 3f 23 66 9a 3f 95 e8 2f 3f
       1.0047619 1.1287836 1.206242 0.68714267
000060 90 f2 99 3f e5 bd 50 3f ba c5 6a 3f 35 68 8c 3f
       1.2027149 0.81539756 0.91707957 1.0969301
000070 63 9b 77 3f 97 97 85 3f 6a 6a 35 3f 07 11 5e 3f
       0.96721476 1.0436887 0.708655 0.8674473
000080 e7 f0 74 3f 9a e8 96 3f 16 b1 86 3f 93 6e 79 3f
       0.9568009 1.1789734 1.0522792 0.9743435
000090 9a 2e 9e 3f f5 dc 90 3f 70 4e 6d 3f 5c 5f 27 3f
       1.2357972 1.1317431 0.9269781 0.6537988
0000a0 55 fc 1a 3f ee 84 92 3f 3e 0b 50 3f 46 99 78 3f
       0.6054128 1.1446817 0.81267154 0.97108877
0000b0 49 8c 8f 3f 0d 4c 91 3f 1e 99 86 3f af 7c 8f 3f
       1.1214687 1.1351334 1.0515478 1.1209925
0000c0 14 66 7b 3f fc 5e 58 3f 03 d3 82 3f fd ff 45 3f
       0.98202634 0.84519935 1.0220646 0.7734373
0000d0 6f e8 7c 3f 67 6b 72 3f 3a e0 5c 3f 9a b2 6b 3f
       0.98792166 0.9469513 0.8627964 0.920694
0000e0 e3 d9 83 3f 15 93 9e 3f 1e ec 8b 3f e9 b2 76 3f
       1.0300869 1.2388636 1.0931432 0.96366745
0000f0 31 76 65 3f 79 4d 21 3f eb 78 5c 3f 2e 3d 77 3f
       0.8963347 0.6300884 0.86122006 0.9657773
000100 61 c5 95 3f 32 ff 8c 3f 6d 5b 2c 3f 05 1c 73 3f
       1.170086 1.101538 0.67327005 0.9496463
000110 ad b6 91 3f e8 7f a7 3f 37 ae 2e 3f 0a 2f 64 3f
       1.1383873 1.3085909 0.6823458 0.89134276
000120 05 f2 3c 3f 85 f0 9e 3f d0 10 a2 3f 18 83 83 3f
       0.7380679 1.2417151 1.2661381 1.0274382
000130 70 86 5b 3f 6b 6f 44 3f 23 7a 95 3f 67 b8 6f 3f
       0.8575201 0.7673251 1.1677898 0.9364075
000140 35 06 18 3f f2 9a 8d 3f 58 9b 75 3f 09 65 b2 3f
       0.5938447 1.106291 0.9594016 1.3937083
000150 7a 31 73 3f 52 e6 56 3f 5d 1a 59 3f 4e c9 7f 3f
       0.9499737 0.8394519 0.8480585 0.9991654
000160 26 73 45 3f 9b a8 9f 3f 6f 42 84 3f ec 45 89 3f
       0.7712883 1.2473329 1.0332774 1.0724463
000170 8b b6 52 3f 63 3f 47 3f ae 55 59 3f 98 af a1 3f
       0.8230979 0.77831095 0.8489636 1.2631712
000180 49 3f 7c 3f dc ab 8a 3f 6c ea 5c 3f 5d cd 7f 3f
       0.98534065 1.0833697 0.862952 0.99922734
000190 a5 f1 81 3f 95 e2 67 3f e1 ea 25 3f 38 19 91 3f
       1.0151869 0.9058011 0.6481152 1.1335821
0001a0 cd 57 5e 3f ea 04 17 3f 93 bf 68 3f 76 90 6a 3f
       0.86852723 0.58991873 0.9091732 0.9162668
0001b0 e2 9d 94 3f f3 d5 71 3f 4c a5 84 3f 41 bc 99 3f
       1.1610682 0.94467086 1.0362945 1.2010576
0001c0 9c c9 87 3f 10 f8 64 3f 51 dc 58 3f d4 85 97 3f
       1.0608401 0.89441013 0.84711176 1.1837716
0001d0 b8 99 7e 3f ed 9e 11 3f 4e b2 6d 3f 93 5a 60 3f
       0.99453306 0.56883126 0.92850196 0.87638205
0001e0 d0 47 7b 3f 18 df 43 3f 45 50 52 3f 11 a8 6f 3f
       0.9815645 0.7651229 0.8215373 0.93615824
0001f0 43 97 6f 3f 9e ed 60 3f 44 07 49 3f 44 57 84 3f
       0.9359018 0.87862575 0.7852671 1.0339131
