trained_models/configs.cnn6_small_dropout_2_specAugment_128_2_32_2_focal_loss/ckpt.pth (torch, 791938 bytes, 88 tensors)

bn0.weight f4 [256]
1.9580374 1.3461679 1.8570198 1.215131 1.1969305 1.1475157 1.369577 1.185375
1.5677732 0.7101674 1.2355448 1.2133573 0.9740947 1.0885609 1.2329926 1.0038979
1.1564553 1.4324615 0.85352653 0.88475764 1.1222848 1.1741587 0.801741 1.225523
1.0848775 0.73918194 1.1713247 0.78531003 1.0272721 1.1139362 0.8382366 0.99820524
1.0531714 1.1204326 0.8426322 1.0496966 0.8889496 1.0245892 0.90692407 1.0500658
0.69549507 0.82315975 1.2379779 0.7399531 0.9695653 0.712776 0.7003404 1.0542525
0.9147822 0.7973525 0.6000677 1.1103308 1.0242244 0.7490104 0.8559367 1.1445282
0.9918459 0.5773995 0.75820106 0.900325 0.6849167 0.96056545 1.0496083 0.7731862
0.8899634 0.7334595 0.6725165 0.88926023 0.900852 0.6776295 0.8327057 0.8575439
0.8801208 0.6018228 0.9633395 0.7259331 0.9117715 0.678801 0.7476755 0.94397926
0.73425996 0.90266407 0.7857568 0.95765674 0.89493287 0.68993634 0.8126644 0.98756313
0.9730181 0.8029487 0.76148474 1.1551584 0.7637874 0.9901937 1.0196527 0.8721457
0.89856213 0.7888799 0.8379724 1.0271881 1.0465633 0.9016821 0.80636734 1.1649355
0.98320454 0.8688835 1.1419317 0.8265852 1.078776 0.8358069 1.1523888 0.8498911
0.9572804 0.9329195 1.0806849 0.8988389 0.8955911 0.94408226 1.0064834 1.0172521
0.71443564 0.9321345 1.1114882 0.8311501 1.2011111 0.7170477 0.94618326 0.95416933
0.94557935 0.9612263 0.98295766 0.9316875 1.0280439 0.83236057 0.6621499 1.1392808
1.1825316 0.8049941 1.3061116 0.8638869 0.8708938 0.9890142 0.71270114 1.0102848
0.8418152 0.9470987 1.402291 1.0488379 1.1424074 0.6887292 0.9363012 0.9679273
0.9243889 1.133743 1.0643842 0.8713558 1.0865376 0.9927037 1.0290364 1.0355641
0.97598153 0.90291226 0.8732739 0.8175318 0.8847697 0.90459555 0.8105099 0.9240069
0.9270638 0.8171516 0.83209294 0.7937558 0.91806555 0.8181957 1.0027716 0.6903469
0.87572116 0.740589 0.8213835 0.78493905 0.91364884 0.8386538 0.9145092 0.8144697
0.9860509 0.9600505 0.8361982 0.8390355 0.8642127 0.75603426 0.85836625 0.84783053
0.92729336 0.8007953 0.75451154 0.67956704 0.75971365 0.6297212 0.8388706 0.6725059
0.8041844 0.67356116 0.89508116 0.86196697 0.80800897 0.7291334 0.8548257 0.7656875
0.76636904 0.6586475 0.65182215 0.76049167 0.6863513 0.8322107 0.94717705 0.69301045
0.79007787 0.6813106 0.7457085 0.741303 0.6836683 0.79786223 0.74053967 0.78297377
0.62240356 0.89485323 0.63782233 0.8065971 0.83173454 0.71593636 0.8570361 0.7625636
0.6570684 0.84511006 0.9071005 0.6709441 0.9142175 0.7295426 0.8457837 0.79958427
0.7428766 0.6341825 0.7805329 0.7566585 0.7975516 1.0213124 0.9144383 1.1586151
1.0359459 1.2528715 1.1255039 1.1510912 1.0628296 0.8948836 0.9487187 1.2522427
00000000: f8a0 fa3f 3b4f ac3f d3b2 ed3f 6a89 9b3f
00000010: 0535 993f cbe1 923f 4d4e af3f 5eba 973f
00000020: cbac c83f 88cd 353f 5526 9e3f 4b4f 9b3f
00000030: 455e 793f f755 8b3f b4d2 9d3f ba7f 803f
00000040: ba06 943f e65a b73f b780 5a3f 7a7f 623f
00000050: 07a7 8f3f d54a 963f e63e 4d3f f0dd 9c3f
00000060: 44dd 8a3f 073b 3d3f f8ed 953f 140a 493f
00000070: a77d 833f 7695 8e3f ac96 563f 618a 7f3f
00000080: 52ce 863f 566a 8f3f beb6 573f 755c 863f
00000090: 3392 633f bd25 833f 2d2c 683f 8e68 863f
000000a0: f70b 323f 99ba 523f 0f76 9e3f 916d 3d3f
000000b0: 6e35 783f 7d78 363f 8249 333f bff1 863f
000000c0: 2b2f 6a3f 4b1f 4c3f 099e 193f 521f 8e3f
000000d0: c919 833f 25bf 3f3f ab1e 5b3f e67f 923f
000000e0: 9de9 7d3f 74d0 133f 7719 423f b37b 663f
000000f0: b356 2f3f 9ee7 753f 9159 863f 88ef 453f
00000100: a4d4 633f 00c4 3b3f 0b2a 2c3f 8fa6 633f
00000110: 3d9e 663f 2079 2d3f 332c 553f ff87 5b3f
00000120: 994f 613f 0f11 1a3f 6b9d 763f c0d6 393f
00000130: db69 693f e7c5 2d3f a967 3f3f a0a8 713f
00000140: 76f8 3b3f fe14 673f 5c27 493f fe28 753f
00000150: 521a 653f ab9f 303f c60a 503f f0d0 7c3f
00000160: b717 793f 0c8e 4d3f aaf0 423f 3bdc 933f
00000170: 9287 433f 567d 7d3f fb83 823f f144 5f3f
00000180: 2b08 663f 08f4 493f 5c85 563f e67a 833f
00000190: c9f5 853f a3d4 663f 176e 4e3f 9b1c 953f
000001a0: 4bb3 7b3f 266f 5e3f d12a 923f 169b 533f
000001b0: 5515 8a3f 71f7 553f 7a81 933f 7792 593f
000001c0: 5410 753f d0d3 6e3f e253 8a3f 4e1a 663f
000001d0: 7545 653f 60af 713f 73d4 803f 5135 823f
000001e0: 41e5 363f 5ea0 6e3f 3f45 8e3f 41c6 543f
000001f0: 02be 993f 7090 373f 1139 723f 7144 743f
00000200: 7d11 723f ed12 763f 1da3 7b3f 1283 6e3f
00000210: f196 833f 9515 553f a882 293f f4d3 913f
00000220: 325d 973f 1814 4e3f aa2e a73f b127 5d3f
00000230: e5f2 5e3f 0930 7d3f 9573 363f 0351 813f
00000240: 3381 573f 0f75 723f 467e b33f 5240 863f
00000250: 683a 923f 8f50 303f 6fb1 6f3f 15ca 773f
00000260: c0a4 6c3f 7e1e 913f be3d 883f 2c11 5f3f
00000270: aa13 8b3f d421 7e3f 77b7 833f 5d8d 843f
00000280: edd9 793f 4225 673f e18e 5f3f c449 513f
00000290: 4480 623f 9393 673f 947d 4f3f b78b 6c3f
000002a0: 0e54 6d3f d930 513f 0b04 553f 9533 4b3f
000002b0: 5806 6b3f 4675 513f d25a 803f 93ba 303f
000002c0: 432f 603f 3e97 3d3f 3046 523f c4f1 483f
000002d0: e4e4 693f 04b2 563f 461d 6a3f 1681 503f
000002e0: d56d 7c3f dfc5 753f 1611 563f 08cb 563f
000002f0: 0b3d 5d3f 768b 413f e4bd 5b3f 6c0b 593f
00000300: 1963 6d3f ec00 4d3f ab27 413f 1bf8 2d3f
00000310: 987c 423f 6935 213f 39c0 563f 5929 2c3f
00000320: 07df 4d3f 816e 2c3f 0a24 653f dea9 5c3f
00000330: add9 4e3f 7da8 3a3f dbd5 5a3f 1904 443f
00000340: c330 443f 1f9d 283f d1dd 263f 95af 423f
00000350: b8b4 2f3f c30b 553f 327a 723f 2269 313f
00000360: 8b42 4a3f 5f6a 2e3f c1e6 3e3f 09c6 3d3f
00000370: e304 2f3f b340 4c3f 0294 3d3f f870 483f
00000380: d755 1f3f 1a15 653f 5348 233f 267d 4e3f
00000390: 8eec 543f 9b47 373f b866 5b3f 5e37 433f
000003a0: a235 283f 2259 583f bd37 683f fec2 2b3f
000003b0: 280a 6a3f 4ec3 3a3f 4885 583f 8eb1 4c3f
000003c0: 292d 3e3f c959 223f 01d1 473f 5fb4 413f
000003d0: 572c 4c3f 5dba 823f a118 6a3f 804d 943f
000003e0: e099 843f 185e a03f 8310 903f f556 933f
000003f0: cd0a 883f 1717 653f 3bdf 723f 7d49 a03f

bn0.bias f4 [256]
0.7238522 0.11762595 -0.01417757 0.20692839 0.52803606 0.7097981 1.0971287 -0.631123
-0.054294754 0.69030714 0.5861525 0.40205288 -0.20267949 0.3346013 0.55258137 0.31354058
-0.11931258 0.25976232 0.3651804 -0.34660867 -0.22058542 0.37169752 0.16179246 -0.062227804
-0.6481815 -0.65730304 0.16899805 -0.10981431 -0.6374482 0.1564793 -0.06483456 -0.72892845
-0.58653545 0.0037351167 -0.13177231 -1.091152 -0.47398856 0.11320057 -0.1830731 -0.8259876
-0.4994578 0.18262312 -0.01912978 -0.6119049 0.13826436 -0.028377654 -0.66082036 0.037868243
0.19535375 0.09876384 -0.45579883 -0.1911725 0.2576388 0.25764874 -0.42806274 -0.21923956
0.47668952 0.17324111 -0.095404014 -0.031461928 0.1456476 0.2518853 -0.17516637 -0.24924488
0.3720318 0.45880997 -0.02682179 0.16454892 0.3214729 0.4991123 0.3112947 -0.24218445
0.2599669 0.48562342 0.18952157 -0.08121835 -0.012418321 0.38329953 -0.21605654 -0.17980915
0.15828674 0.14734212 -0.021221422 -0.43568617 0.0776194 0.09489302 -0.021127846 -0.19524425
-0.12298471 0.055879287 0.023449592 -0.17297797 -0.5899894 0.19575815 -0.14309117 -0.33753854
0.2625567 -0.44517732 -0.40958562 -0.05257355 -0.17158929 -0.38683024 -0.339376 -0.021619227
-0.11606743 0.14029695 0.3059931 -0.4355581 -0.07464996 0.12731776 -0.38919386 -0.11906238
0.043099243 -0.26096588 -0.3623019 -0.13861921 0.105267994 -0.058779303 0.120709464 -0.06977998
0.07582528 0.03167656 -0.0841339 0.19936952 -0.35516062 -0.34548128 -0.22657947 -0.1440021
0.084470816 -0.30512232 -0.46313548 0.13784042 0.03477414 -0.19721067 0.044703774 -0.16296275
-0.49543282 -0.09830733 -0.21215793 -0.25677297 -0.26255414 -0.3490084 -0.29372063 -0.28245935
-0.45292723 -0.06560291 -0.32180506 -0.48940885 0.08506278 -0.5512653 -0.591904 0.032624178
-0.020457642 -0.22247925 -0.020974264 0.1497733 -0.2461346 -0.2817635 0.005617249 -0.36845875
-0.10364267 0.022646863 -0.077411644 -0.004848911 -0.13223183 -0.23516332 -0.02205956 -0.19126624
0.0073496383 -0.10844317 -0.069166854 -0.38328457 -0.18619816 0.19421102 -0.23032273 -0.46918094
0.12769952 -0.04673846 -0.1232934 0.20735744 0.08358451 -0.29490808 -0.09189052 0.08986531
-0.13789196 -0.3042432 0.02778684 -0.09970814 -0.48044968 0.04824594 0.122507975 0.03462915
-0.27292228 -0.2826067 0.11877765 0.08314416 -0.18768348 -0.16394888 0.035956457 0.07298242
-0.13618468 0.07237847 -0.05952699 -0.151025 -0.0705654 0.07738504 -0.050089404 -0.0934153
0.0037499873 -0.11266518 0.16997126 -0.07444142 0.03584101 -0.3325966 -0.2204692 0.29666302
0.2607642 0.21639524 -0.10831515 0.12438142 0.020512497 -0.13577704 -0.13076642 0.018415116
0.1721386 0.01823241 0.1336374 -0.071022704 0.17689808 0.4185983 0.17100076 -0.024142163
0.23247093 -0.20736219 0.13241583 0.37323073 0.15494406 -0.05017212 -0.022001542 0.37810326
0.19761746 -0.073086075 0.4081211 0.28430012 0.23212865 -0.04872251 -0.2767588 0.33635202
-0.18480174 0.29151395 0.5242123 -0.010959074 -0.4169346 0.25555903 0.21056287 -0.59014666
00000000: 614e 393f e0e5 f03d 0a49 68bc 09e5 533e
00000010: 5f2d 073f 54b5 353f b76e 8c3f 4791 21bf
00000020: 2d64 5ebd f8b7 303f 170e 163f e0d9 cd3e
00000030: 368b 4fbe dd50 ab3e f975 0d3f 6488 a03e
00000040: 275a f4bd 91ff 843e edf8 ba3e b176 b1be
00000050: 25e1 61be 234f be3e ecac 253e 95e2 7ebd
00000060: 39ef 25bf 0345 28bf d30d 2d3e 53e6 e0bd
00000070: ce2f 23bf 1c3c 203e fbc7 84bd 0e9b 3abf
00000080: 3027 16bf dcc8 743b 52ef 06be deaa 8bbf
00000090: a1ae f2be b3d5 e73d 8477 3bbe ec73 53bf
000000a0: efb8 ffbe 8e01 3b3e 0eb6 9cbc cda5 1cbf
000000b0: 2c95 0d3e 4178 e8bc 862b 29bf bb1b 1b3d
000000c0: d00a 483e b244 ca3d 775e e9be b9c2 43be
000000d0: 3ce9 833e 89ea 833e 0a2b dbbe 5680 60be
000000e0: a610 f43e 1e66 313e 2e63 c3bd 39de 00bd
000000f0: a524 153e 1cf7 803e d05e 33be 0d3a 7fbe
00000100: f47a be3e 24e9 ea3e 5fb9 dbbc 837f 283e
00000110: 1998 a43e a68b ff3e 0562 9f3e 33ff 77be
00000120: 621a 853e a2a3 f83e f111 423e ce55 a6bd
00000130: 3776 4bbc d63f c43e ed3d 5dbe e41f 38be
00000140: eb15 223e dae0 163e 8cd8 adbc 4212 dfbe
00000150: ecf6 9e3d 4657 c23d 4e14 adbc 1cee 47be
00000160: 68df fbbd aee1 643d 5c19 c03c 2321 31be
00000170: 8c09 17bf d374 483e 7e86 12be dad1 acbe
00000180: d56d 863e 48ee e3be 35b5 d1be 5d57 57bd
00000190: 1ab5 2fbe 9d0e c6be b1c2 adbe ce1a b1bc
000001a0: c3b4 edbd 01aa 0f3e 21ab 9c3e 7901 dfbe
000001b0: 14e2 98bd 965f 023e 6b44 c7be fad6 f3bd
000001c0: d588 303d 529d 85be a27f b9be 32f2 0dbe
000001d0: bf96 d73d 91c2 70bd 8636 f73d cee8 8ebd
000001e0: 494a 9b3d 48bf 013d 654e acbd 8627 4c3e
000001f0: 9dd7 b5be ece2 b0be 7304 68be 4975 13be
00000200: 09ff ac3d fe38 9cbe 1820 edbe 0a26 0d3e
00000210: 546f 0e3d 98f1 49be 4e1b 373d b5df 26be
00000220: 5fa9 fdbe 5a55 c9bd ee3f 59be bf77 83be
00000230: 7f6d 86be 3bb1 b2be 8d62 96be 839e 90be
00000240: 14e6 e7be d25a 86bd a2c3 a4be cc93 fabe
00000250: 6535 ae3d b91f 0dbf 0587 17bf eea0 053d
00000260: c996 a7bc 9ad1 63be 38d2 abbc 2c5e 193e
00000270: b50a 7cbe 4e43 90be e610 b83b a0a6 bcbe
00000280: 9c42 d4bd ea85 b93c ff89 9ebd 9de3 9ebb
00000290: c867 07be a7ce 70be 40b6 b4bc 4cdb 43be
000002a0: 3cd5 f03b 7417 debd 5aa7 8dbd e03d c4be
000002b0: bbaa 3ebe 41df 463e b9d9 6bbe 7c38 f0be
000002c0: aac3 023e d470 3fbd 4081 fcbd 8255 543e
000002d0: 5b2e ab3d 31fe 96be 1931 bcbd 4e0b b83d
000002e0: 8d33 0dbe c4c5 9bbe 3aa1 e33c c833 ccbd
000002f0: 80fd f5be 899d 453d 76e5 fa3d 4cd7 0d3d
00000300: 78bc 8bbe d3b1 90be b241 f33d 7c47 aa3d
00000310: 1930 40be 37e2 27be 1447 133d cf77 953d
00000320: ff73 0bbe 2a3b 943d 93d2 73bd 4ca6 1abe
00000330: 9884 90bd 0c7c 9e3d 8c2a 4dbd 8550 bfbd
00000340: 59c2 753b 00bd e6bd f20c 2e3e be74 98bd
00000350: 06ce 123d 1a4a aabe aec2 61be 37e4 973e
00000360: e382 853e b796 5d3e 55d4 ddbd b0bb fe3d
00000370: d309 a83c 2309 0bbe a2e7 05be 4cdb 963c
00000380: 1a45 303e 235c 953c 3ed8 083e 5a74 91bd
00000390: c524 353e 8452 d63e d31a 2f3e c9c5 c5bc
000003a0: dc0c 6e3e c156 54be 0498 073e 1918 bf3e
000003b0: a8a9 1e3e 4881 4dbd 943c b4bc c096 c13e
000003c0: 3b5c 4a3e 27ae 95bd 40f5 d03e c98f 913e
000003d0: 22b3 6d3e 4191 47bd 54b3 8dbe 5536 ac3e
000003e0: ab3c 3dbe 5141 953e c732 063f b08d 33bc
000003f0: 7478 d5be a2d8 823e cb9d 573e da13 17bf

bn0.running_mean f4 [256]
2.3846495 4.780604 6.536277 7.279112 6.3887444 5.1018524 4.7947607 2.17945
2.2447124 1.213743 1.4615163 -0.33513996 -0.3952648 -0.49491912 -1.4225534 -1.8830636
-2.9706125 -1.7150722 -4.305853 -3.7442193 -4.40711 -4.5575724 -5.6112905 -6.060308
-5.468887 -6.9743114 -6.6922064 -7.465507 -6.447457 -8.138862 -7.9557304 -7.8288465
-8.445202 -8.853399 -9.711048 -8.39967 -10.550645 -9.942822 -10.424114 -10.308928
-11.375318 -11.699514 -11.148434 -12.622736 -12.503088 -13.404635 -11.955155 -13.606882
-13.220514 -13.090253 -13.318587 -13.66556 -14.301936 -12.896901 -14.677178 -13.912901
-14.164567 -13.495794 -14.451671 -14.524447 -13.804976 -14.656494 -14.381701 -15.176066
-13.532147 -15.269638 -14.355598 -14.633535 -14.933114 -14.8386 -15.012912 -14.690878
-14.7120495 -14.901337 -15.240435 -15.6671295 -15.592506 -15.903956 -15.816312 -15.828061
-15.866739 -16.02217 -16.215494 -16.440403 -16.654774 -16.917303 -17.22138 -17.060898
-17.401224 -17.669064 -17.817217 -17.971289 -18.26764 -18.368748 -18.278545 -19.024298
-19.243748 -19.124754 -19.089123 -19.969479 -19.936092 -19.824701 -20.801308 -20.212467
-20.896734 -20.803694 -20.855164 -21.212523 -21.356508 -21.568518 -21.975304 -21.729511
-22.448286 -22.244352 -22.34606 -22.655546 -22.712006 -22.558067 -23.051012 -23.209898
-23.455662 -23.812757 -24.125504 -24.369806 -24.683254 -24.991362 -25.231041 -25.383795
-25.604427 -25.804043 -26.049356 -26.280615 -26.32006 -26.836676 -27.090748 -27.089533
-27.371077 -27.558199 -27.488276 -27.905258 -27.884459 -27.991583 -28.104284 -27.941986
-28.2523 -28.377848 -28.65021 -28.807608 -28.99503 -29.183037 -29.382881 -29.78422
-30.060204 -30.329235 -30.68326 -31.062134 -31.464415 -31.797905 -32.332222 -32.69942
-33.366444 -33.97086 -34.919765 -35.401474 -35.853848 -36.50714 -37.065388 -37.755146
-38.435894 -39.060654 -39.705025 -40.314518 -40.58856 -40.837624 -41.025158 -41.007557
-41.505127 -41.648396 -41.730663 -41.61954 -41.512062 -41.507595 -41.54196 -41.529728
-41.47892 -41.640266 -41.74239 -41.96079 -42.06241 -42.154274 -42.243042 -42.306576
-42.217224 -42.07912 -42.398952 -42.50326 -42.63056 -42.84145 -43.09533 -43.363766
-43.509182 -43.69839 -43.834106 -43.796196 -43.68898 -43.682133 -43.61895 -43.80056
-44.239788 -44.58499 -44.761612 -44.917316 -45.17085 -45.380333 -45.61656 -45.896946
-46.209846 -46.570156 -46.910706 -47.45594 -47.910515 -48.227528 -48.46293 -48.716537
-49.021343 -49.445618 -49.81747 -49.88887 -50.27763 -50.632656 -51.05849 -51.51087
-51.75751 -52.33046 -52.596893 -52.83304 -53.170223 -53.406277 -53.610043 -53.847
-53.974056 -54.01542 -54.317326 -54.36349 -54.382347 -54.601994 -54.876076 -54.74199
-55.08823 -54.554768 -56.149242 -60.56202 -63.360363 -68.00092 -74.85129 -84.61564
00000000: 199e 1840 b5fa 9840 2e29 d140 7cee e840
00000010: 9870 cc40 6042 a340 ae6e 9940 1c7c 0b40
00000020: 5ea9 0f40 ee5b 9b3f f712 bb3f 7797 abbe
00000030: 2660 cabe 0a66 fdbe 3b16 b6bf 3a08 f1bf
00000040: 841e 3ec0 7c87 dbbf 8cc9 89c0 4aa1 6fc0
00000050: 0c07 8dc0 a2d7 91c0 b18f b3c0 0bee c1c0
00000060: 1f01 afc0 8f2d dfc0 8e26 d6c0 6fe5 eec0
00000070: 9151 cec0 c738 02c1 5895 fec0 e985 fac0
00000080: 8c1f 07c1 86a7 0dc1 7460 1bc1 0c65 06c1
00000090: 71cf 28c1 cd15 1fc1 2cc9 26c1 5ef1 24c1
000000a0: 4d01 36c1 3631 3bc1 fc5f 32c1 baf6 49c1
000000b0: a60c 48c1 6379 56c1 5148 3fc1 cab5 59c1
000000c0: 3a87 53c1 ad71 51c1 ef18 55c1 22a6 5ac1
000000d0: bbd4 64c1 b559 4ec1 b9d5 6ac1 3e9b 5ec1
000000e0: 11a2 62c1 c6ee 57c1 0b3a 67c1 2364 68c1
000000f0: 2fe1 5cc1 0081 6ac1 731b 66c1 2bd1 72c1
00000100: ad83 58c1 7050 74c1 88b0 65c1 f622 6ac1
00000110: 09ee 6ec1 e86a 6dc1 e334 70c1 d60d 6bc1
00000120: 8e64 6bc1 e06b 6ec1 d2d8 73c1 90ac 7ac1
00000130: e87a 79c1 9b76 7ec1 9d0f 7dc1 bd3f 7dc1
00000140: 2ade 7dc1 672d 80c1 55b9 81c1 f285 83c1
00000150: fa3c 85c1 a356 87c1 63c5 89c1 b87c 88c1
00000160: b535 8bc1 3e5a 8dc1 a989 8ec1 33c5 8fc1
00000170: 2024 92c1 32f3 92c1 763a 92c1 c331 98c1
00000180: 32f3 99c1 7fff 98c1 86b6 98c1 7ec1 9fc1
00000190: 1e7d 9fc1 fd98 9ec1 1469 a6c1 22b3 a1c1
000001a0: 832c a7c1 f76d a6c1 60d7 a6c1 3fb3 a9c1
000001b0: 21da aac1 538c acc1 6ccd afc1 0ad6 adc1
000001c0: 1796 b3c1 6ff4 b1c1 bbc4 b2c1 8f3e b5c1
000001d0: 30b2 b5c1 ec76 b4c1 7968 b8c1 dfad b9c1
000001e0: 32a5 bbc1 8780 bec1 0801 c1c1 5df5 c2c1
000001f0: 4e77 c5c1 4fee c7c1 2cd9 c9c1 0312 cbc1
00000200: ded5 ccc1 ae6e cec1 1565 d0c1 b33e d2c1
00000210: 7c8f d2c1 83b1 d6c1 dab9 d8c1 5db7 d8c1
00000220: f7f7 dac1 3177 dcc1 fde7 dbc1 f83d dfc1
00000230: 5f13 dfc1 c3ee dfc1 93d5 e0c1 3089 dfc1
00000240: b604 e2c1 d505 e3c1 a133 e5c1 fb75 e6c1
00000250: d2f5 e7c1 dc76 e9c1 2410 ebc1 1546 eec1
00000260: 4c7b f0c1 46a2 f2c1 5177 f5c1 407f f8c1
00000270: 1fb7 fbc1 1c62 fec1 3254 01c2 35cc 02c2
00000280: 3d77 05c2 29e2 07c2 d7ad 0bc2 1c9b 0dc2
00000290: 576a 0fc2 5007 12c2 f542 14c2 4505 17c2
000002a0: 5bbe 19c2 1c3e 1cc2 f2d1 1ec2 1142 21c2
000002b0: af5a 22c2 ba59 23c2 c319 24c2 bd07 24c2
000002c0: 4005 26c2 f597 26c2 33ec 26c2 697a 26c2
000002d0: 5a0c 26c2 c707 26c2 f82a 26c2 711e 26c2
000002e0: 6aea 25c2 a28f 26c2 35f8 26c2 d9d7 27c2
000002f0: e83f 28c2 fa9d 28c2 e0f8 28c2 ef39 29c2
00000300: 70de 28c2 0551 28c2 8798 29c2 5703 2ac2
00000310: b285 2ac2 a55d 2bc2 9e61 2cc2 7f74 2dc2
00000320: 6709 2ec2 27cb 2ec2 2056 2fc2 4e2f 2fc2
00000330: 84c1 2ec2 81ba 2ec2 ce79 2ec2 c633 2fc2
00000340: 8bf5 30c2 0857 32c2 e40b 33c2 55ab 33c2
00000350: f3ae 34c2 7685 35c2 5c77 36c2 7996 37c2
00000360: e2d6 38c2 d747 3ac2 90a4 3bc2 e2d2 3dc2
00000370: 5ea4 3fc2 fde8 40c2 0ada 41c2 bcdd 42c2
00000380: db15 44c2 50c8 45c2 1745 47c2 348e 47c2
00000390: 4b1c 49c2 d787 4ac2 e53b 4cc2 220b 4ec2
000003a0: b107 4fc2 6452 51c2 3863 52c2 0855 53c2
000003b0: 4fae 54c2 07a0 55c2 af70 56c2 5463 57c2
000003c0: 6fe5 57c2 ca0f 58c2 f144 59c2 3774 59c2
000003d0: 8687 59c2 7168 5ac2 1a81 5bc2 ccf7 5ac2
000003e0: 595a 5cc2 1538 5ac2 d398 60c2 823f 72c2
000003f0: 0371 7dc2 7900 88c2 dcb3 95c2 353b a9c2

bn0.running_var f4 [256]
262.7261 227.58475 229.65201 134.04488 82.0136 79.31021 83.19837 87.59396
74.78377 94.56967 96.585846 84.972946 82.667625 96.513374 97.65453 82.57228
93.99388 100.83935 103.87186 89.14251 105.56759 106.45301 92.43857 95.12222
106.927574 107.29342 92.23264 108.657974 109.12424 98.79645 94.900406 109.22271
109.24069 93.663345 102.34134 108.73796 111.187706 95.62118 110.99446 108.4083
93.77829 94.667015 105.7376 104.45162 88.651596 103.99405 105.53301 98.11478
92.91935 107.410095 109.913574 95.05199 101.998085 108.924324 108.14443 92.53894
107.89473 108.51574 95.26135 95.49774 108.87245 110.49145 96.098915 112.35587
113.75814 112.31517 99.42834 102.56642 115.642586 117.25488 107.130615 102.72846
102.00409 103.92701 109.12822 120.64175 122.28801 115.70915 107.576515 103.72437
102.426384 101.424225 100.80545 100.737144 100.249275 100.796135 102.70928 102.440834
102.12943 100.37452 99.13277 99.00955 99.35297 98.6994 97.49204 98.95388
98.959755 96.651566 94.39496 95.53924 93.237724 92.04864 94.43313 91.760765
92.62826 93.56855 94.529686 94.51886 92.73694 91.57939 91.28042 90.93834
90.90865 90.884735 90.42981 89.84075 91.25561 92.26761 91.20009 88.382164
86.72594 86.16028 86.49529 87.55917 88.7187 87.56325 85.981026 85.025345
84.227036 82.557495 81.877846 83.23698 84.045074 84.42227 83.56797 82.84397
82.53665 82.114555 82.02723 82.10175 82.47191 81.577446 81.86833 81.15269
80.53664 79.67653 79.62408 79.98601 81.103004 82.05551 83.3318 86.012115
85.98474 84.62219 84.437996 83.53266 83.196205 83.301445 83.33954 82.278
82.9121 82.75596 82.13955 81.4798 81.15344 82.056305 82.63496 84.38176
83.86863 82.28375 81.352394 82.47859 82.458725 82.994484 81.78792 82.655075
84.0664 86.65818 87.62155 87.445366 88.044014 88.4655 88.34455 88.40603
87.715324 87.60721 87.693146 86.50604 85.22554 84.40839 84.07181 83.60968
82.83111 82.91556 83.55584 83.78747 84.05598 84.64203 84.536415 86.62463
86.80871 85.642715 83.82142 82.69228 81.61776 80.09931 79.45886 80.06708
82.32126 83.27545 83.08815 83.38666 83.44846 82.61438 82.78983 82.60698
82.95537 83.13074 84.46759 88.12304 89.83944 92.619095 92.662445 93.1898
95.38112 96.61891 97.05021 93.3443 94.63291 95.57159 95.117004 95.46675
96.16163 97.73335 98.2806 95.43655 91.89715 90.10106 88.37338 88.01803
88.066216 88.557976 88.39647 88.9775 96.58272 96.29707 89.63235 95.224815
93.23065 118.40708 160.07503 114.34917 100.36914 86.05488 64.117615 66.81354
00000000: f15c 8343 b295 6343 eaa6 6543 7d0b 0643
00000010: f706 a442 d49e 9e42 9165 a642 1c30 af42
00000020: 4a91 9542 ac23 bd42 f42b c142 26f2 a942
00000030: d355 a542 d906 c142 1f4f c342 0225 a542
00000040: defc bb42 bfad c942 64be cf42 f748 b242
00000050: 9b22 d342 f1e7 d442 8ce0 b842 943e be42
00000060: ebda d542 3b96 d642 1d77 b842 e250 d942
00000070: 9c3f da42 c897 c542 02cd bd42 0772 da42
00000080: 3c7b da42 a253 bb42 c4ae cc42 d679 d942
00000090: 1b60 de42 0b3e bf42 2afd dd42 0dd1 d842
000000a0: 7c8e bb42 8355 bd42 a779 d342 3be7 d042
000000b0: 9e4d b142 f4fc cf42 e710 d342 c43a c442
000000c0: b5d6 b942 f8d1 d642 c0d3 db42 9e1a be42
000000d0: 05ff cb42 41d9 d942 f349 d842 f013 b942
000000e0: 1aca d742 0f08 d942 d085 be42 d8fe be42
000000f0: b2be d942 9ffb dc42 a532 c042 35b6 e042
00000100: 2b84 e342 5ea1 e042 4fdb c642 0222 cd42
00000110: 0149 e742 8082 ea42 e042 d642 f974 cd42
00000120: 1802 cc42 a1da cf42 a641 da42 9348 f142
00000130: 7693 f442 166b e742 2d27 d742 e172 cf42
00000140: 4fda cc42 34d9 ca42 649c c942 6b79 c942
00000150: a17f c842 9f97 c942 276b cd42 b5e1 cc42
00000160: 4542 cc42 c1bf c842 fa43 c642 e404 c642
00000170: b8b4 c642 1866 c542 edfb c242 63e8 c542
00000180: 65eb c542 9a4d c142 38ca bc42 1714 bf42
00000190: b779 ba42 e718 b842 c3dd bc42 8385 b742
000001a0: ab41 b942 1923 bb42 330f bd42 a809 bd42
000001b0: 5079 b942 a628 b742 938f b642 6ee0 b542
000001c0: 3bd1 b542 fcc4 b542 10dc b442 77ae b342
000001d0: df82 b642 0489 b842 7266 b642 abc3 b042
000001e0: ae73 ad42 1052 ac42 97fd ac42 4c1e af42
000001f0: f96f b142 6220 af42 49f6 ab42 fa0c aa42
00000200: 3e74 a842 701d a542 75c1 a342 5579 a642
00000210: 1417 a842 34d8 a842 cd22 a742 1db0 a542
00000220: c412 a542 a73a a442 f10d a442 1934 a442
00000230: 9ef1 a442 a727 a342 96bc a342 2d4e a242
00000240: c212 a142 625a 9f42 873f 9f42 d6f8 9f42
00000250: bd34 a242 6c1c a442 e2a9 a642 3406 ac42
00000260: 30f8 ab42 903e a942 41e0 a842 b910 a742
00000270: 7564 a642 579a a642 d8ad a642 568e a442
00000280: ffd2 a542 0d83 a542 7347 a442 a8f5 a242
00000290: 904e a242 d41c a442 1945 a542 76c3 a842
000002a0: bdbc a742 4891 a442 6db4 a242 0af5 a442
000002b0: deea a442 2dfd a542 6a93 a342 664f a542
000002c0: ff21 a842 fd50 ad42 3c3e af42 07e4 ae42
000002d0: 8916 b042 56ee b042 69b0 b042 e3cf b042
000002e0: 3f6e af42 e436 af42 e462 af42 1803 ad42
000002f0: 7a73 aa42 18d1 a842 c424 a842 2838 a742
00000300: 87a9 a542 c4d4 a542 971c a742 2f93 a742
00000310: a91c a842 b848 a942 a512 a942 d03f ad42
00000320: 0f9e ad42 1249 ab42 91a4 a742 7362 a542
00000330: 4b3c a342 d932 a042 f0ea 9e42 5822 a042
00000340: 7ca4 a442 088d a642 222d a642 f8c5 a642
00000350: 9de5 a642 903a a542 6594 a542 c636 a542
00000360: 26e9 a542 f042 a642 68ef a842 ff3e b042
00000370: cbad b342 fa3c b942 2c53 b942 2d61 ba42
00000380: 22c3 be42 e23c c142 b519 c242 48b0 ba42
00000390: 0d44 bd42 a724 bf42 e83b be42 faee be42
000003a0: c152 c042 7a77 c342 ab8f c442 83df be42
000003b0: 57cb b742 be33 b442 2cbf b042 3b09 b042
000003c0: e721 b042 af1d b142 feca b042 7bf4 b142
000003d0: 5a2a c142 1a98 c042 c343 b342 1b73 be42
000003e0: 1876 ba42 6dd0 ec42 3513 2043 c6b2 e442
000003f0: 00bd c842 191c ac42 383c 8042 88a0 8542

conv1.bn.weight f4 [64]
1.1070383 1.3550787 1.0401957 0.96062833 1.513892 0.66217417 0.7473552 1.1950613
0.5436444 0.95072335 0.40178236 1.1639946 0.94960755 1.3355292 0.79072416 0.432707
0.91765577 0.7428662 1.1294798 0.58321875 0.56204796 0.623171 1.1980276 0.9085159
0.83864385 0.5611171 1.1440041 0.3933437 1.1655401 1.6400856 0.5584849 1.4183928
0.9877982 0.9479562 0.8597124 0.5248052 1.0185635 1.59516 0.9558059 0.7073283
0.54071707 0.4485504 1.0635847 0.8551758 0.855058 0.9868699 1.1212236 0.46931693
0.49008185 1.0012958 0.8091817 0.8981599 0.7794923 0.43341237 0.67417014 1.5426936
0.50538707 1.4232701 0.91364366 1.0826724 0.80502677 0.6300157 0.45220163 0.8290826
00000000: 6eb3 8d3f 3873 ad3f 2225 853f bdeb 753f
00000010: 37c7 c13f 3f84 293f ac52 3f3f c5f7 983f
00000020: 482c 0b3f 9b62 733f 6bb6 cd3e c6fd 943f
00000030: 7b19 733f 9ff2 aa3f e66c 4a3f c68b dd3e
00000040: 7deb 6a3f 7b2c 3e3f cb92 903f d34d 153f
00000050: 60e2 0f3f 2288 1f3f f858 993f 7f94 683f
00000060: 5db1 563f 5fa5 0f3f ba6e 923f 5864 c93e
00000070: 6b30 953f 53ee d13f def8 0e3f e58d b53f
00000080: 58e0 7c3f 42ad 723f 1d16 5c3f a259 063f
00000090: 4a60 823f 342e cc3f b2af 743f 7813 353f
000000a0: 6f6c 0a3f 66a8 e53e 8b23 883f cdec 5a3f
000000b0: 15e5 5a3f 81a3 7c3f 4184 8f3f 4f4a f03e
000000c0: 02ec fa3e 762a 803f 8826 4f3f cfed 653f
000000d0: cf8c 473f 3ae8 dd3e 6a96 2c3f fc76 c53f
000000e0: 0c61 013f b72d b63f 8de4 693f 0295 8a3f
000000f0: 3c16 4e3f b548 213f f986 e73e c23e 543f

conv1.bn.bias f4 [64]
-0.25511333 -0.6860447 0.9059475 -0.58547854 -0.360433 -0.18733804 0.008557015 0.37476012
-0.6100983 0.80121803 -0.0029583205 0.39241564 0.23877911 -0.13896072 -0.0015710922 -0.2179581
0.54290557 -0.34532073 0.13298213 0.2044681 -0.33860558 -0.17504853 0.6155437 0.44385314
-0.83413035 -0.4999092 0.0049445624 -0.19299743 -0.87353295 0.020728406 -0.49984846 -0.20916572
-0.9019681 -0.24344115 -0.23080458 -0.6057392 0.3897087 0.56099135 0.35407788 -0.73701924
-0.17861758 0.011129415 -0.71062505 0.098064356 -0.1861067 0.41181514 0.6074946 -0.3799837
-0.12038266 0.5323152 -0.1664335 0.006087722 -0.072299734 -0.61222386 0.23013729 0.3377724
-0.36284488 0.8066863 0.6140684 0.6983732 -0.5869847 0.04788016 -0.18378167 -0.17061906
00000000: 379e 82be a0a0 2fbf 2dec 673f ece1 15bf
00000010: ad8a b8be 8bd5 3fbe b932 0c3c 8fe0 bf3e
00000020: 672f 1cbf a01c 4d3f 62e0 41bb b4ea c83e
00000030: 8382 743e b84b 0ebe 1bed cdba 6830 5fbe
00000040: dcfb 0a3f e1cd b0be 782c 083e 1660 513e
00000050: b65d adbe ec3f 33be 4694 1d3f b840 e33e
00000060: 9189 55bf 19f4 ffbe ff05 a23b 1ea1 45be
00000070: db9f 5fbf 9ece a93c 23ec ffbe 8a2f 56be
00000080: 62e7 66bf a348 79be 0958 6cbe b911 1bbf
00000090: e687 c73e 219d 0f3f b249 b53e 4bad 3cbf
000000a0: 87e7 36be 2658 363c 86eb 35bf f7d5 c83d
000000b0: c192 3ebe 6fd9 d23e c484 1b3f 398d c2be
000000c0: 2f8b f6bd cf45 083f 8b6d 2abe 837b c73b
000000d0: e211 94bd b4ba 1cbf 1ca9 6b3e 81f0 ac3e
000000e0: cec6 b9be fe82 4e3f 9633 1d3f 96c8 323f
000000f0: a144 16bf fd1d 443d 4331 3cbe c3b6 2ebe

conv1.bn.running_mean f4 [64]
-0.0015673233 0.0010649167 -0.00018342001 -0.002600147 0.0021193027 0.0008962923 -0.0001623233 -1.4361384e-06
0.008423494 9.955079e-05 0.0040727807 -0.00043060898 0.00033215946 -0.001371817 -0.00020155014 0.001633131
-0.0006924133 0.0010800721 -0.001738332 -0.00030405523 -0.006759038 -0.010274081 0.00015423012 -0.00030118888
-0.0021871903 0.004557467 -8.666315e-05 0.0028656763 -0.0038074784 -0.00021295484 -0.0026354352 -0.0042027277
-0.0004901025 0.0022496185 -0.0017606363 -0.0039218217 0.00028567802 0.00019019881 -0.00025504045 0.0014364504
0.003990076 0.004354629 -0.00069642777 -8.035017e-05 0.00019606571 0.0018306455 0.0002169527 -0.012787234
-0.0045104325 -0.0010255409 -0.00055285514 -0.0005657397 -0.0001946615 -0.0029167484 -0.001193431 -0.00033195023
-0.00022289452 0.00148587 0.00014884274 0.00013203348 0.0009975603 0.0106653785 -0.003979254 -0.0032129327
00000000: a56e cdba ad94 8b3a 6f54 40b9 3a67 2abb
00000010: 00e4 0a3b 28f5 6a3a 5435 2ab9 57c1 c0b5
00000020: b202 0a3c ecc5 d038 f674 853b 5cc3 e1b9
00000030: b025 ae39 8ace b3ba 3457 53b9 c80e d63a
00000040: 1283 35ba 3591 8d3a bed8 e3ba 9a69 9fb9
00000050: ec7a ddbb 9e54 28bc d5b8 2139 e3e8 9db9
00000060: f756 0fbb ce56 953b edbe b5b8 12ce 3b3b
00000070: e386 79bb a14c 5fb9 44b7 2cbb 09b7 89bb
00000080: 397a 00ba 566e 133b 27c5 e6ba a082 80bb
00000090: 0ec7 9539 1b70 4739 f3b6 85b9 4747 bc3a
000000a0: 2fbf 823b 47b1 8e3b 7a90 36ba ab81 a8b8
000000b0: fd96 4d39 45f2 ef3a cc7d 6339 8c81 51bc
000000c0: 40cc 93bb 716b 86ba 7bed 10ba 264e 14ba
000000d0: 0c1e 4cb9 eb26 3fbb e66c 9cba 9b09 aeb9
000000e0: cbb8 69b9 86c1 c23a ab12 1c39 7872 0a39
000000f0: 92c0 823a d7bd 2e3c 6764 82bb 1190 52bb

conv1.bn.running_var f4 [64]
0.0524961 0.18495287 0.0060572694 0.036626093 0.11820521 0.038615372 0.0039485344 0.003574725
0.05992553 0.11204044 0.019240147 0.15839 0.015893044 0.018399311 0.01721392 0.005277153
0.01496982 0.036873516 0.30048597 0.0021250793 0.048115283 0.10997111 0.06906401 0.1156876
0.054033086 0.034138773 0.10294583 0.010313413 0.108555794 0.11109835 0.009478583 0.51361245
0.016810529 0.08488902 0.011792485 0.029328637 0.04849884 0.11226307 0.0040591364 0.016462652
0.02175991 0.016553985 0.011770165 0.0058157663 0.006129373 0.09238369 0.009847272 0.15719433
0.02293548 0.011439077 0.029653896 0.015454639 0.0016967724 0.010132237 0.060265433 0.09810407
0.004164739 0.11801176 0.1275476 0.0033582202 0.046799038 0.12736169 0.017299881 0.10286472
00000000: 2706 573d 4964 3d3e 0f7c c63b 3e05 163d
00000010: 9315 f23d 272b 1e3d b562 813b ef45 6a3b
00000020: 7974 753d 7575 e53d 839d 9d3c fd30 223e
00000030: 2132 823c 27ba 963c 3504 8d3c f8eb ac3b
00000040: fa43 753c af08 173d 4cd9 993e ea44 0b3b
00000050: 8814 453d 8938 e13d 6f71 8d3d 9fed ec3d
00000060: cc51 5d3d 19d5 0b3d 43d5 d23d 97f9 283c
00000070: 8052 de3d 8887 e33d 0f4c 1b3c 1b7c 033f
00000080: 3cb6 893c 4bda ad3d 4435 413c 9c42 f03c
00000090: b8a6 463d 2eea e53d 8102 853b afdc 863c
000000a0: d741 b23c 399c 873c a6d7 403c 2f92 be3b
000000b0: e8d8 c83b a933 bd3d 7456 213c 8df7 203e
000000c0: 30e3 bb3c f76a 3b3c baec f23c 7435 7d3c
000000d0: 3c66 de3a af01 263c e3d8 763d c9ea c83d
000000e0: 5d78 883b 26b0 f13d d79b 023e 9615 5c3b
000000f0: 59b0 3f3d 1a6b 023e 7bb8 8d3c bdaa d23d

conv1.ch_conv1.weight f4 [64, 1, 1, 1]
-0.4234005 1.0312679 -0.31007272 0.6065789 0.8173658 -0.61610824 0.14649579 -0.22215936
-0.2223705 0.92906237 -0.17005228 1.169672 -0.5053316 -0.5034682 -0.41326323 0.1519917
0.3332237 -0.5897513 1.2093823 -0.13432302 -0.26520893 0.43034402 -0.87530756 0.82811266
0.68846077 -0.5350785 0.9434722 -0.11466855 -1.0010626 -1.1427732 0.20092785 1.3388532
-0.45579082 0.7324465 0.23158063 0.28860298 0.6970742 -1.0886998 -0.25722623 -0.3624516
0.21531929 -0.15251595 0.29104614 0.22594197 0.26369464 0.79154104 0.22516513 -0.4984959
0.18518674 0.3085857 0.40220752 0.35926843 0.14333895 -0.19072232 0.6929583 1.2579094
0.16974716 -1.0599877 0.87415314 0.20292927 -0.5390054 0.52364475 0.17935081 -0.8676322
00000000: f3c7 d8be 9600 843f dac1 9ebe c148 1b3f
00000010: e33e 513f 45b9 1dbf fe02 163e be7d 63be
00000020: 18b5 63be 08d7 6d3f 2f22 2ebe d0b7 953f
00000030: 695d 01bf 4be3 00bf 3d97 d3be b6a3 1b3e
00000040: 4c9c aa3e f1f9 16bf 0acd 9a3f f98b 09be
00000050: 77c9 87be 0d56 dc3e 2814 60bf 31ff 533f
00000060: f73e 303f e8fa 08bf 6587 713f 58d7 eabd
00000070: d222 80bf 6446 92bf 08c0 4d3e 8b5f ab3f
00000080: 6a5d e9be 9d81 3b3f 7923 6d3e c5c3 933e
00000090: 7473 323f 845a 8bbf 28b3 83be 4293 b9be
000000a0: a97c 5c3e 242d 1cbe 0004 953e 555d 673e
000000b0: fc02 873e 6fa2 4a3f b091 663e db3a ffbe
000000c0: 98a1 3d3e f2fe 9d3e 25ee cd3e 08f2 b73e
000000d0: 72c7 123e b64c 43be b765 313f 2d03 a13f
000000e0: 33d2 2d3e adad 87bf 80c8 5f3f b1cc 4f3e
000000f0: 42fc 09bf 950d 063f bda7 373e 251d 5ebf

conv1.sp_conv1.weight f4 [64, 1, 3, 1]
0.3086149 0.09951741 0.30461487 -0.0025401176 0.44021562 0.06498021 -0.044296235 0.18450047
0.53744894 -0.23098911 0.033888277 -0.4888316 -0.08558267 -0.34356943 -0.025290662 0.51542497
0.047350362 -0.23550613 -0.10563498 -0.32971027 0.5651057 -0.5787635 -0.09967738 0.08278146
0.3027086 0.57210326 0.033577804 -0.107864566 0.45694107 0.58569884 -0.18192454 0.13289227
0.44810072 -0.056791924 -0.63512474 -0.30623466 0.48524106 -0.11597147 -0.504649 -0.013154023
0.16384812 0.025755782 0.4212413 -0.4239854 -0.6878371 -0.1891223 -0.19578515 -0.5385579
-0.24620834 0.21978846 0.38257262 -0.17079943 -0.6474347 0.6364175 -0.49635398 0.19332252
-0.13585436 -0.3574377 0.43968156 -0.38784274 -0.32622993 0.013032169 -0.50999 0.67904437
0.16320603 0.40392658 -0.5880743 0.44532248 0.4521911 -0.6809697 0.22649059 0.067044295
-0.15545353 0.16662738 -0.27918768 -0.30117464 0.13036254 0.004784471 -0.10211821 0.76423776
-0.6618593 0.36373654 0.37335414 0.5386842 0.18645084 -0.10177986 0.48054478 -0.5702801
0.5096796 -0.11273086 -0.22624679 -0.52220815 0.1942617 -0.021569408 0.52983665 0.23024337
-0.4975395 0.33435637 -0.21513088 -0.08412883 0.12303876 0.15997213 0.22395079 -0.3937888
0.22283332 0.16196884 0.06796335 0.4853783 -0.5496167 0.39052474 -0.043590754 -0.17571355
0.2185508 -0.535553 0.459525 -0.24372168 -0.49891597 0.032754973 -0.17474426 0.005334151
-0.5247965 -0.077128254 -0.13190344 -0.09225705 -0.030748114 -0.31083342 -0.13169764 -0.11184131
0.5194281 -0.14726155 -0.15449414 -0.17410935 -0.2854013 0.35380194 -0.45330146 -0.14293826
-0.108275756 0.19785756 0.5428424 -0.26952422 0.05188099 0.5876208 0.06974034 -0.45002282
0.20804012 0.21792838 0.26362884 0.58415407 0.45263135 -0.55451816 0.4169138 -0.32414833
0.5770745 -0.20745902 -0.30703062 0.34215903 0.503971 -0.09135531 -0.3192204 0.49632233
-0.46208513 -0.514765 -0.49614346 -0.1699435 0.24850784 -0.46097863 -0.027733855 -0.1538882
0.20930254 0.07874812 0.0054854793 -0.1617053 -0.20016973 -0.5604545 -0.64554185 -0.18691404
-0.08611084 0.41579667 0.36126646 -0.4350052 0.18283048 0.56823605 -0.20763779 -0.091771096
-0.27505776 0.46803266 0.51736885 0.5402889 0.01858083 0.32915756 -0.024350679 0.035482056
00000000: c602 9e3e c9cf cb3d 7bf6 9b3e 1a78 26bb
00000010: f163 e13e 5814 853d f86f 35bd b1ed 3c3e
00000020: 4196 093f 6988 6cbe 6fce 0a3d 2348 fabe
00000030: f845 afbd 55e8 afbe 5d2e cfbc e4f2 033f
00000040: 74f2 413d 8528 71be 2757 d8bd c9cf a8be
00000050: c4aa 103f d829 14bf a723 ccbd 5389 a93d
00000060: 9ffc 9a3e 5c75 123f e188 093d 19e8 dcbd
00000070: 2ef4 e93e 5cf0 153f 6d4a 3abe e914 083e
00000080: 756d e53e a69e 68bd 8997 22bf caca 9cbe
00000090: 8471 f83e 7382 edbd ad30 01bf f983 57bc
000000a0: cdc7 273e cafd d23c f1ac d73e 9d14 d9be
000000b0: 1816 30bf 47a9 41be e77b 48be eede 09bf
000000c0: 0a1e 7cbe 3a10 613e 8fe0 c33e 0ce6 2ebe
000000d0: 48be 25bf 42ec 223f 1c22 febe 57f6 453e
000000e0: 681d 0bbe 1302 b7be f11d e13e 5393 c6be
000000f0: 9c07 a7be e184 553c b48e 02bf dad5 2d3f
00000100: 7b1f 273e 77cf ce3e 0a8c 16bf 4f01 e43e
00000110: 9885 e73e 0854 2ebf 26ed 673e 854e 893d
00000120: 362f 1fbe 5ea0 2a3e b0f1 8ebe 9033 9abe
00000130: c27d 053e 0dc7 9c3b 5a23 d1bd 16a5 433f
00000140: 9c6f 29bf ad3b ba3e 4628 bf3e 35e7 093f
00000150: f8ec 3e3e f671 d0bd f709 f63e e0fd 11bf
00000160: 5d7a 023f 70df e6bd 3dad 67be 6faf 05bf
00000170: 8aec 463e 54b2 b0bc 60a3 073f ebc4 6b3e
00000180: 7fbd febe c230 ab3e 454b 5cbe bc4b acbd
00000190: bffb fb3d bccf 233e 5b53 653e b09e c9be
000001a0: 6b2e 643e 29db 253e 5e30 8b3d 8183 f83e
000001b0: aeb3 0cbf dcf2 c73e 388c 32bd 41ee 33be
000001c0: c8cb 5f3e 001a 09bf dc46 eb3e 2d92 79be
000001d0: ea71 ffbe 142a 063d 29f0 32be 1aca ae3b
000001e0: 1059 06bf 6bf5 9dbd b211 07be 44f1 bcbd
000001f0: 78e3 fbbc 8f25 9fbe bfdb 06be 0f0d e5bd
00000200: 3df9 043f bbcb 16be b633 1ebe b949 32be
00000210: 1f20 92be 8725 b53e 2117 e8be 685e 12be
00000220: aebf ddbd 2c9b 4a3e b8f7 0a3f 14ff 89be
00000230: 2981 543d 516e 163f 06d4 8e3d 6469 e6be
00000240: 7808 553e 9e28 5f3e 5cfa 863e 1f8b 153f
00000250: 4cbf e73e e7f4 0dbf ba75 d53e c5f6 a5be
00000260: 28bb 133f 2370 54be 1e33 9dbe 782f af3e
00000270: 3e04 013f 7e18 bbbd db70 a3be f61d fe3e
00000280: 6c96 ecbe a4c7 03bf 8406 febe ab05 2ebe
00000290: d778 7e3e 6405 ecbe 1c32 e3bc de94 1dbe
000002a0: 6853 563e b246 a13d 89bf b33b 1396 25be
000002b0: 4bf9 4cbe f279 0fbf 3b42 25bf 6566 3fbe
000002c0: e15a b0bd 4de3 d43e ebf7 b83e 00b9 debe
000002d0: ea37 3b3e eb77 113f 009f 54be 7cf2 bbbd
000002e0: 5fd4 8cbe faa1 ef3e 4972 043f 6050 0a3f
000002f0: d336 983c 5787 a83e 137b c7bc a255 113d

conv1.sp_conv2.weight f4 [64, 1, 1, 3]
-0.5105735 0.3692746 -0.6753514 -0.13164265 0.27734628 -0.6353562 -0.17856486 -0.34958494
-0.15801987 0.15265591 0.40662307 0.27364147 0.6808035 -0.2922502 -0.009570233 0.42046654
-0.528321 -0.13170642 -0.32238138 -0.42424825 0.60018146 0.23133421 0.24572481 0.11727525
0.40136603 0.12082443 0.119941294 -0.5601408 -0.48206595 0.08020224 0.6460917 0.3403221
-0.3425238 0.5820585 0.41373587 0.034506198 0.017927112 0.15872538 -0.01874772 0.2769434
0.020534838 -0.5230838 0.07695945 0.37361744 0.19514948 0.16528274 0.016023891 0.27638647
-0.589552 0.16692308 0.11958682 -0.3787371 0.35825062 0.24687201 0.065068975 -0.3789773
0.74102235 0.4942522 -0.15743907 -0.09970472 -0.5751026 -0.019638088 0.31579316 -0.22311793
-0.07595626 0.02179691 0.22387235 -0.28516906 -0.2059143 0.106171116 -0.3081515 0.5558773
0.112899214 0.6285349 -0.31448492 -0.08485429 0.5306581 0.0572569 -0.09924267 0.037759155
0.045365743 0.007927351 0.19263068 -0.40957955 0.19514723 -0.5360285 -0.33117965 -0.021108767
0.17660528 0.005499971 -0.14885187 0.32385722 0.8312003 -0.5549983 0.37404257 -0.41161266
0.14038558 -0.056643356 0.2304808 0.5663014 -0.09937523 -0.6980453 0.21656674 -0.6222173
0.61783576 -0.19686127 0.43042204 -0.36183718 0.07122092 0.36252728 -0.22551638 -0.032682694
0.5616574 -0.036259197 -0.07030766 0.35586706 -0.048203595 0.5687569 0.25070632 -0.45352954
-0.5528996 -0.016516488 0.4759093 0.43055028 0.31160137 0.7935452 -0.5740462 -0.06043924
0.40115106 -0.46406776 0.31359163 0.5641298 0.015236054 0.4074215 -0.06893143 0.5973074
0.065343544 -0.61647457 -0.55767864 0.5250316 -0.32357123 -0.5282439 -0.4359988 -0.2895594
0.75919145 -0.010595728 -0.3729123 -0.31937328 -0.24742815 0.18133038 -0.4495948 0.08462633
-0.23592065 0.35515764 -0.37601408 0.25397837 0.33132124 -0.09351713 -0.24249351 -0.26569214
0.1194049 -0.013399905 0.4800179 -0.13174061 0.14916658 0.012664935 0.61336464 0.022094335
0.67018276 -0.38035247 -0.45696658 0.12483525 0.444092 0.37142712 0.6235672 0.4080426
-0.08748449 0.35777104 -0.5064797 -0.1921252 -0.054655686 0.16938654 -0.53747356 -0.36734262
0.37457517 -0.86537606 -0.38959336 0.04962598 0.13892154 -0.6631557 -0.09515063 0.21892151
00000000: f2b4 02bf 8f11 bd3e d4e3 2cbf 55cd 06be
00000010: 5500 8e3e b4a6 22bf b5d9 36be ccfc b2be
00000020: f6cf 21be d551 1c3e e630 d03e bc1a 8c3e
00000030: 2349 2e3f d1a1 95be 77cc 1cbc 6447 d73e
00000040: 0c40 07bf 0cde 06be 2c0f a5be 1137 d9be
00000050: 7ea5 193f e0e2 6c3e 499f 7b3e 022e f03d
00000060: d97f cd3e cc72 f73d c8a3 f53d 6365 0fbf
00000070: 59d1 f6be 1241 a43d 4466 253f b33e ae3e
00000080: 485f afbe c901 153f 30d5 d33e 5f56 0d3d
00000090: e1db 923c e888 223e d294 99bc 86cb 8d3e
000000a0: ad38 a83c d2e8 05bf eb9c 9d3d c94a bf3e
000000b0: 44d5 473e e13f 293e 8944 833c 8782 8d3e
000000c0: e1ec 16bf e2ed 2a3e efe9 f43d d4e9 c1be
000000d0: a06c b73e 04cc 7c3e e242 853d 5009 c2be
000000e0: a4b3 3d3f a00e fd3e b537 21be fd31 ccbd
000000f0: ed39 13bf 0ee0 a0bc a4af a13e 0779 64be
00000100: f58e 9bbd 6f8f b23c cb3e 653e ae01 92be
00000110: 33db 52be 3e70 d93d 09c6 9dbe fa4d 0e3f
00000120: b437 e73d aae7 203f 2b04 a1be 16c8 adbd
00000130: 36d9 073f 3686 6a3d be3f cbbd 58a9 1a3d
00000140: 6ed1 393d b8e1 013c fa40 453e 69b4 d1be
00000150: add4 473e 2a39 09bf 6190 a9be 4bec acbc
00000160: 04d8 343e 1a39 b43b a06c 18be 9dd0 a53e
00000170: 8bc9 543f 5e14 0ebf 8282 bf3e e5be d2be
00000180: 3dc1 0f3e dd02 68bd 2903 6c3e 21f9 103f
00000190: 3e85 cbbd 19b3 32bf acc3 5d3e a249 1fbf
000001a0: 7c2a 1e3f 0096 49be 4760 dc3e b942 b9be
000001b0: 46dc 913d 2d9d b93e c4ed 66be 4ade 05bd
000001c0: c8c8 0f3f 8684 14bd 76fd 8fbd 3534 b63e
000001d0: 2271 45bd 0d9a 113f 945c 803e 0635 e8be
000001e0: d48a 0dbf 964d 87bc 62aa f33e 1671 dc3e
000001f0: 378a 9f3e c725 4b3f b1f4 12bf 238f 77bd
00000200: ac63 cd3e 4a9a edbe 158f a03e d06a 103f
00000210: a4a0 793c 8d99 d03e ec2b 8dbd 23e9 183f
00000220: d6d2 853d 47d1 1dbf 07c4 0ebf 7968 063f
00000230: 21ab a5be fe3a 07bf 3c3b dfbe 2141 94be
00000240: 5f5a 423f b499 2dbc 5cee bebe e584 a3be
00000250: ce5d 7dbe acae 393e 4a31 e6be 9250 ad3d
00000260: 2f95 71be 39d7 b53e eb84 c0be 7409 823e
00000270: f0a2 a93e e985 bfbd 3850 78be cd08 88be
00000280: 8e8a f43d 468b 5bbc e8c4 f53e 03e7 06be
00000290: 20bf 183e 9680 4f3c 7705 1d3f 2eff b43c
000002a0: 1991 2b3f 8fbd c2be 86f7 e9be a0a9 ff3d
000002b0: 0760 e33e b22b be3e 1aa2 1f3f f6ea d03e
000002c0: 112b b3bd c42d b73e a7a8 01bf 78bc 44be
000002d0: a4de 5fbd aa73 2d3e de97 09bf 5514 bcbe
000002e0: 51c8 bf3e 4989 5dbf c878 c7be 9d44 4b3d
000002f0: 7341 0e3e 92c4 29bf 55de c2bd f62c 603e

conv2.bn.weight f4 [128]
0.9435771 0.83462656 1.2328881 1.0745984 0.88986534 0.7717176 1.1466032 1.0372776
1.1068729 0.97221285 0.61082405 0.78339326 1.09202 0.77898216 1.0326456 1.1146053
0.5545961 0.74645466 1.0908442 0.5925988 0.78197664 0.8047004 1.0340047 1.1436077
1.0203687 0.6549966 0.7518002 0.99482274 0.8278689 0.94865376 0.79861116 0.7107934
0.7846342 1.0482249 1.0090739 1.0001925 1.0513643 1.0614074 0.89423907 0.81760484
1.2951486 0.8564371 0.66070646 0.8912283 0.94432056 0.73364174 1.1883804 0.9627652
0.73944336 1.2102737 1.2164407 1.0668641 0.92606074 1.1323241 0.9640765 0.8483531
1.0515577 0.6757981 1.1086253 1.089269 1.2952546 1.2395186 0.7927634 1.0899705
0.9834152 1.0382941 1.0284932 0.7753086 0.84138304 0.75373006 0.72528654 1.1990416
1.0071505 0.8409642 0.9946705 1.2306706 1.1411765 0.829336 1.1545813 0.88418925
1.0527198 1.0928316 0.91464853 1.0410054 0.95103896 1.2283057 1.093079 1.0449927
0.81034166 1.0595359 1.2402774 0.9683003 0.7578116 0.8042797 1.1495055 1.1807864
0.83450705 1.1840388 0.768788 1.2944369 1.0752312 1.0216353 1.0458025 1.2954956
0.7310049 0.92040443 1.0302 0.86085415 1.0729953 0.74814177 0.9790659 0.80981433
1.0945429 0.9848114 0.9183494 0.9991252 1.1717552 1.1996037 0.7142532 0.68613297
0.95182335 0.989008 0.8805644 0.95669454 1.0370282 1.2708877 0.7972197 0.80242956
00000000: 458e 713f 16aa 553f 47cf 9d3f 718c 893f
00000010: 37ce 633f 498f 453f e5c3 923f 83c5 843f
00000020: 03ae 8d3f f1e2 783f f75e 1c3f 768c 483f
00000030: 50c7 8b3f 606b 473f bb2d 843f 63ab 8e3f
00000040: 03fa 0d3f a717 3f3f c8a0 8b3f 8eb4 173f
00000050: 9f2f 483f d800 4e3f 445a 843f bd61 923f
00000060: 719b 823f dbad 273f fa75 403f b4ac 7e3f
00000070: 37ef 533f f9da 723f c871 4c3f 8ef6 353f
00000080: c9dd 483f 3c2c 863f 5529 813f 4f06 803f
00000090: 1b93 863f 33dc 873f daec 643f 8d4e 513f
000000a0: 6ec7 a53f 763f 5b3f 0f24 293f 8a27 643f
000000b0: febe 713f f2cf 3b3f d91c 983f c877 763f
000000c0: 294c 3d3f 40ea 9a3f 54b4 9b3f 018f 883f
000000d0: 5112 6d3f ffef 903f b8cd 763f ab2d 593f
000000e0: 7199 863f 1b01 2d3f 6fe7 8d3f 2b6d 8b3f
000000f0: e7ca a53f 8ca8 9e3f 8bf2 4a3f 2784 8b3f
00000100: 19c1 7b3f d2e6 843f aaa5 833f a07a 463f
00000110: e164 573f 74f4 403f 61ac 393f 327a 993f
00000120: 4fea 803f 6e49 573f baa2 7e3f 9d86 9d3f
00000130: 1212 923f 5d4f 543f 52c9 933f 3a5a 623f
00000140: 86bf 863f e8e1 8b3f 6826 6a3f aa3f 853f
00000150: 4a77 733f 1f39 9d3f 03ea 8b3f 52c2 853f
00000160: 8d72 4f3f df9e 873f 69c1 9e3f 87e2 773f
00000170: f1ff 413f 46e5 4d3f ff22 933f 0224 973f
00000180: 41a2 553f 958e 973f 4acf 443f 1cb0 a53f
00000190: 2da1 893f f2c4 823f dbdc 853f cdd2 a53f
000001a0: 2323 3b3f a09f 6b3f 98dd 833f f060 5c3f
000001b0: e957 893f 3886 3f3f 10a4 7a3f fe4f 4f3f
000001c0: fb19 8c3f 9a1c 7c3f f218 6b3f abc6 7f3f
000001d0: 13fc 953f 9d8c 993f 4cd9 363f 69a6 2f3f
000001e0: b2aa 733f a12f 7d3f ab6c 613f efe9 743f
000001f0: 57bd 843f 73ac a23f 9716 4c3f 066c 4d3f

conv2.bn.bias f4 [128]
-0.59355086 -0.8039955 -0.0102783125 0.04114976 -0.3647365 -0.32239896 -0.007586624 -0.19664037
-0.10875883 -0.2603778 0.3929471 -0.2690728 -0.47766313 -0.46996227 -0.088527285 -0.3668637
-0.3552943 -0.30198705 -0.3891324 0.4584656 -0.4387923 -0.290395 0.028213724 -0.22228572
-0.31117982 -0.06717776 -0.48471633 -0.47018784 0.45148346 -0.6196119 -0.19523397 -0.39686388
0.3627924 -0.53008544 -0.107750796 -0.37106353 -0.08827912 0.043063287 -0.04621336 0.16883105
-0.8181416 -0.050886948 0.282883 -0.6532247 0.39734516 -0.49521324 -0.040534545 -0.34823453
-0.5956723 -0.5040948 -0.3007603 0.18778476 -0.45680007 -0.034229826 -0.1396413 -0.3312263
-0.4594267 0.026599023 -0.5629482 -0.63393885 -0.18149154 -0.2647 -0.48942584 -0.27828416
0.123839006 0.08804238 -0.5329311 0.24240403 -0.24405433 -0.3927602 -0.7208519 0.089058496
-0.7214272 -0.68518674 -0.15079683 -0.75296724 -0.27733797 -0.29962605 -0.1670985 0.04398085
-0.45394754 0.16538753 -0.23959212 -0.9552212 -0.52808833 0.10072827 -0.22053926 -0.31224844
0.63191956 -0.90864295 0.04743844 -0.3163279 -0.06240024 -0.7751851 -0.3304705 -0.001791908
-0.35819298 -0.3892803 -0.09964772 -0.34809753 -0.17070174 -0.606877 0.22613187 -0.13470824
-0.24626529 -0.47477198 -0.2834671 -0.25789952 -0.26984128 -0.3131294 -0.6446284 0.5038697
-0.46750665 -0.5325265 -0.13820778 0.121712565 0.22058745 -0.56821907 -0.5670105 0.06590826
-0.43298894 -0.064498164 -0.7058123 -0.016784502 -0.54509085 -0.4798867 0.41786426 -0.42041722
00000000: f3f2 17bf a6d2 4dbf 5e66 28bc a78c 283d
00000010: bebe babe 7a11 a5be 3799 f8bb 185c 49be
00000020: f3bc debd 3d50 85be 5d30 c93e e9c3 89be
00000030: 4390 f4be e59e f0be cb4d b5bd 8fd5 bbbe
00000040: 22e9 b5be 0c9e 9abe 5d3c c7be 01bc ea3e
00000050: 62a9 e0be a7ae 94be 7820 e73c de9e 63be
00000060: f652 9fbe 7e94 89bd bd2c f8be 76bc f0be
00000070: d728 e73e e39e 1ebf 6aeb 47be be31 cbbe
00000080: edbf b93e aeb3 07bf 73ac dcbd 0afc bdbe
00000090: afcb b4bd 2163 303d 384a 3dbd 0ce2 2c3e
000000a0: ba71 51bf d56e 50bd 0ad6 903e bc39 27bf
000000b0: d370 cb3e 978c fdbe 8d07 26bd cc4b b2be
000000c0: fb7d 18bf 5b0c 01bf 41fd 99be a64a 403e
000000d0: b3e1 e9be 9334 0cbd 21fe 0ebe 7e96 a9be
000000e0: fa39 ebbe 32e6 d93c 601d 10bf d149 22bf
000000f0: ebd8 39be c286 87be 0696 fabe 437b 8ebe
00000100: 4e9f fd3d 904f b43d 2c6e 08bf c338 783e
00000110: 61e9 79be dd17 c9be c089 38bf 4d64 b63d
00000120: 74af 38bf 6668 2fbf 7c6a 1abe 76c2 40bf
00000130: 3eff 8dbe 9668 99be df1b 2bbe 4425 343d
00000140: d06b e8be 595b 293e a357 75be 6089 74bf
00000150: cc30 07bf a04a ce3d 0bd5 61be 07df 9fbe
00000160: 7bc5 213f d39c 68bf cf4e 423d bbf5 a1be
00000170: 6597 7fbd 8872 46bf 6e33 a9be 75de eaba
00000180: 1265 b7be bf4f c7be 1b14 ccbd d739 b2be
00000190: 70cc 2ebe 4b5c 1bbf 1d8f 673e f5f0 09be
000001a0: f82c 7cbe 5015 f3be 9a22 91be 680b 84be
000001b0: a328 8abe 7f52 a0be 5e06 25bf 9bfd 003f
000001c0: 085d efbe a853 08bf 5786 0dbe 7044 f93d
000001d0: ade1 613e ce76 11bf 9a27 11bf e9fa 863d
000001e0: bab0 ddbe 9d17 84bd 1db0 34bf a77f 89bc
000001f0: 138b 0bbf b6b3 f5be 4ef2 d53e ed40 d7be

conv2.bn.running_mean f4 [128]
0.058491863 -0.08731117 -3.741542 -0.27445245 -1.3440566 -4.335291 -0.5292311 -0.29844108
-2.363387 -1.0297288 0.011672447 -0.18520182 -0.3941506 0.68103945 -0.8447064 -0.75380516
0.2114932 -6.3522954 -3.980565 0.01262125 3.0114014 -1.5650094 -2.682994 -0.13070685
-0.7745355 -0.57668674 1.2891426 -0.003486415 -0.2128973 -0.00033746203 -1.4107511 3.5419714
-0.057154883 -1.940914 -0.35284305 -1.0154802 -0.6051647 -1.1154261 -0.4010015 -0.014692402
-1.6823003 0.0037356785 -0.0058282577 -0.1642206 -0.13191436 -0.3896292 -1.7224089 -1.6507404
0.10308005 -0.010343426 -2.8840828 0.16923188 -0.16994329 -1.4141777 -0.72690463 -5.214095
0.73983705 -1.1568531 -0.76181364 0.27370578 -0.41291976 -1.2215855 -0.45080218 -1.5371366
0.07247259 -1.4699647 0.07303054 0.003774371 -0.37133396 -1.1329472 0.06296708 -0.0025147977
-0.079326734 0.4268604 -0.26282275 -2.0671873 -0.98188335 -1.9220346 -0.81075174 -2.382094
-0.29548594 -0.08977871 -0.05170952 0.046900343 -1.3937141 -2.4266136 -2.4539213 1.8926423
0.030078739 -1.3259163 -2.6332066 -0.5279712 -2.131874 0.21542874 -0.813768 -1.6901075
1.0692663 -1.0422872 -0.018678902 -4.2523966 0.07123546 0.049398344 -0.93989074 -0.4501302
-0.029836275 -0.18519792 -2.9639554 -2.8917096 -0.015937915 0.2981617 0.02551362 0.0056960816
-0.74690497 0.012738859 -2.5786011 -0.34077027 -1.67288 -1.062146 2.6854296 -1.2168396
-0.014517665 -1.8742129 0.3575336 -2.1037586 -0.07949474 -0.092320696 -0.08098819 -0.3398706
00000000: 2a95 6f3d 33d0 b2bd 6d75 6fc0 0885 8cbe
00000010: 0c0a acbf b4ba 8ac0 b07b 07bf 45cd 98be
00000020: bc41 17c0 27ce 83bf cb3d 3f3c 8ca5 3dbe
00000030: 1cce c9be 9a58 2e3f ae3e 58bf 60f9 40bf
00000040: ac91 583e 0146 cbc0 94c1 7ec0 5cc9 4e3c
00000050: cdba 4040 3a52 c8bf 2cb6 2bc0 04d8 05be
00000060: f547 46bf bea1 13bf a002 a53f 567c 64bb
00000070: c001 5abe 63ed b0b9 7e93 b4bf a9af 6240
00000080: 3d1b 6abd df6f f8bf d8a7 b4be 41fb 81bf
00000090: 13ec 1abf 48c6 8ebf 1250 cdbe 67b8 70bc
000000a0: 9e55 d7bf 49d2 743b f8fa bebb 7229 28be
000000b0: 8f14 07be 7a7d c7be e577 dcbf 764b d3bf
000000c0: a21b d33d 7977 29bc d094 38c0 1f4b 2d3e
000000d0: 9d05 2ebe c603 b5bf 6c16 3abf ded9 a6c0
000000e0: f665 3d3f c313 94bf 3806 43bf 2a23 8c3e
000000f0: 386a d3be ea5c 9cbf 8bcf e6be e4c0 c4bf
00000100: 826c 943d ce27 bcbf 0991 953d 705b 773b
00000110: 7c1f bebe 6a04 91bf e2f4 803d 4ecf 24bb
00000120: 0e76 a2bd 728d da3e b490 86be cc4c 04c0
00000130: b55c 7bbf 3b05 f6bf 6d8d 4fbf 3a74 18c0
00000140: ef49 97be e6dd b7bd 5dcd 53bd 931a 403d
00000150: 3965 b2bf a34d 1bc0 0c0d 1dc0 1a42 f23f
00000160: b067 f63c a0b7 a9bf 7586 28c0 1f29 07bf
00000170: a070 08c0 5a99 5c3e 1a53 50bf 7155 d8bf
00000180: b8dd 883f ab69 85bf 7f04 99bc a213 88c0
00000190: e6e3 913d eb55 4a3d ae9c 70bf 7777 e6be
000001a0: 346b f4bc 86a4 3dbe 72b1 3dc0 c511 39c0
000001b0: 3b90 82bc a6a8 983e f001 d13c 32a6 ba3b
000001c0: 2a35 3fbf a6b6 503c cd07 25c0 7179 aebe
000001d0: ef20 d6bf 66f4 87bf 14de 2b40 66c1 9bbf
000001e0: 80db 6dbc 35e6 efbf a50e b73e fba3 06c0
000001f0: 23ce a2bd a212 bdbd 23dd a5bd 8503 aebe
